data/models/models/output/phi_L.pth (torch, 17399 bytes, 8 tensors)

fc1.weight f4 [25, 6]
00000000: 5b86 653e 1386 20be 2b34 a8be 66db 18be
00000010: a726 ae3c cc40 89be b287 693f 00e2 3d3f
00000020: 3387 0bbe b563 92bc 714e 003c 3e3c 48bd
00000030: 212f d33e ec2b 17bf adc2 d43d edec c139
00000040: e1c5 0cbb 86be 3f3d ee92 13bf ab5d 313f
00000050: dd86 b4be b3d9 64be dca5 0cbe ca34 23bd
00000060: 43e0 3abd b2bb 873f 3a67 973d 2458 14bd
00000070: 42ad 80bd 49b2 0d3d c53f eabe 09c8 9a3e
00000080: 9fd4 bf3d d23d c4bd 3701 7b3e ac9c 1dbc
00000090: 493a 2cbd 4627 803d 72e1 ce3e 5632 a83d
000000a0: d396 5a3d 23af 253e 0b34 543d 53c5 333e
000000b0: 4a97 77bf f892 3dbc 2ed7 9d3c 6872 b63c
000000c0: 5053 33be d423 103e 514a b73e 73c9 973d
000000d0: 7d4f 08bd a325 86bd 8729 96be 7669 98bd
000000e0: 8af0 7fbe faee 163d a324 7cbe 36c4 a7be
000000f0: a4c1 b23d e41a fbbe 38cd 273e 89a3 a7be
00000100: 31b3 e33d 1be4 50be fcca 923e de5a 8fbe
00000110: 1067 3fbe 6285 b1be f710 c13e f59f 4c3e
00000120: d10c 7e3d 288a bcbe 4353 9dbc b7d2 f73c
00000130: 168d 373e 00aa 86be eebb 3a3f 0bc0 4bbf
00000140: 308b 273e 5d7f d2bd a8bf 8b3e 012c 98bd
00000150: 7382 15be e90a 753e 6179 6c3e a5fe 55be
00000160: 3805 55bd a09e 113e f804 303f 7da5 a6be
00000170: f122 803e 6fbd 163c 7ab8 62bc 5194 763d
00000180: 5a31 dfbe 0edb 253f ed9e 113e ae46 333c
00000190: fefb c13d 4e67 90be aa99 90bf 2d9d 9d3e
000001a0: 0910 c1bd eff5 303d f59e acba 0f38 38bc
000001b0: c651 393e 275c a53e 0f53 8dbe 1d20 8ebe
000001c0: 6b87 9fbe 3f1b 86bc 61e0 043f 8f91 64bf
000001d0: 6a84 05bd 5c44 72be b502 31be 6e5a a9bd
000001e0: dbc0 593f 3431 52bf 3c63 ebbd 3b40 28bd
000001f0: 8171 383c 3e1c 92bc 9979 62be 2340 89bd
00000200: 44ca 55be b134 dbbc 2bc3 463e 8079 13be
00000210: a9c0 8abc 7174 403e d783 033e 48dc 47be
00000220: 020e 6e3e e078 94be baf3 48bf 027d 55bf
00000230: 801d 0bbd daf1 c93c 2c01 a13b 3896 4dbc
00000240: 0fe4 1c3e 22ef eebe 4922 403e e342 bcbc
00000250: 6480 4abc 8762 43be
0.22414534 -0.15676145 -0.328523 -0.14927444 0.021258665 -0.2680725 0.9122268 0.74172974
-0.13625793 -0.01786981 0.007831202 -0.048885576 0.41246894 -0.59051394 0.10388694 0.00036988352
-0.002148025 0.046812557 -0.5764607 0.6928355 -0.35259143 -0.2234867 -0.13735145 -0.039845265
-0.04562403 1.0604155 0.07392736 -0.03621687 -0.06283046 0.034593854 -0.45751777 0.3023074
0.09366726 -0.09582104 0.24512182 -0.009619873 -0.042047773 0.06257491 0.40406376 0.08212726
0.053366493 0.1618009 0.051807445 0.17555742 -0.96715224 -0.011570685 0.019267645 0.02227135
-0.1751225 0.14076167 0.35798886 0.0741147 -0.03327893 -0.065501474 -0.29328558 -0.0744199
-0.24994102 0.036849 -0.24623351 -0.32766885 0.0872834 -0.49043953 0.16386878 -0.32741955
0.111181624 -0.20399515 0.2867049 -0.27999014 -0.18691659 -0.34672076 0.37708256 0.19982894
0.06202394 -0.36824155 -0.019204741 0.030251844 0.17924914 -0.26301575 0.7294301 -0.7958991
0.1636169 -0.10278199 0.2729466 -0.07430268 -0.14600544 0.23929943 0.23093177 -0.2089792
-0.05200693 0.14220667 0.6875758 -0.32548133 0.25026658 0.009200438 -0.013837928 0.06020004
-0.4359234 0.64787376 0.14220782 0.010942144 0.09471892 -0.28203815 -1.1296895 0.30783978
-0.094268866 0.04320329 -0.0013169931 -0.011243834 0.180976 0.3229687 -0.2760243 -0.27758875
-0.31158003 -0.016370414 0.51904875 -0.89284605 -0.032596983 -0.2365889 -0.17286189 -0.08269201
0.850599 -0.8210633 -0.11493537 -0.04107688 0.01125753 -0.017835733 -0.22116698 -0.06701686
-0.2087794 -0.026758524 0.19410388 -0.14401817 -0.01693757 0.18794419 0.12843262 -0.19517624
0.23247531 -0.2899847 -0.784969 -0.8339387 -0.03396368 0.024651457 0.00491347 -0.012548022
0.15321372 -0.4666682 0.18763079 -0.022981113 -0.012359712 -0.19080554

fc1.bias f4 [25]
00000000: e39b bc3d 512a 0a3d e19e 2dbd 0b52 5d3e
00000010: d56a 9ebc bf59 84bd ae3d 70bd 84a2 0a3e
00000020: 69c1 82bd 3b89 1ebe 976e 9fbe 99d4 9fbe
00000030: e793 3f3e 5958 04be 8d5e 0cbc cc34 86bd
00000040: e176 f63d d14b 523d fbaa bcbd 8b88 a539
00000050: f173 273d 29cf 333e 2555 ad3c c8d6 8f3b
00000060: a0be 42bd
0.092094205 0.033731762 -0.042387847 0.21613328 -0.01933805 -0.0646243 -0.058652572 0.13538557
-0.06384546 -0.15482037 -0.3113906 -0.31216887 0.18708764 -0.12924327 -0.008567465 -0.06553039
0.12034393 0.051341835 -0.092122994 0.00031572985 0.040882055 0.17559494 0.021158764 0.0043896176
-0.047545075

fc2.weight f4 [40, 25]
00000000: 521d a1bc 7cf1 e73c 3c7a 27bc 6dbc 87bc
00000010: f2c2 b4bc 2af7 0dbd e873 83ba dff2 80bc
00000020: 2c67 d3bc 895d 29bc ca93 203d 52b6 f5bc
00000030: 42e8 bdbc f46c 06bd 0c86 343c 8a20 e43b
00000040: 5c86 edbc a350 31bc acb3 a33b c21a eabc
00000050: f8c0 b0bb 664c 633c 9eb7 393b 4c44 9ebc
00000060: 628e 483c 7067 6b3c 2281 9ebe 96d5 50bc
00000070: 1b5a b63b 3b5b 3abe 5a18 f8bc 9a7b 2bbd
00000080: 739d 8abe b4ed bebd 352e d83d e1ae c6bc
00000090: 7cff 3fbd e9e3 1fbd f8b6 6abd 2257 47ba
000000a0: 649f cdbd e618 67bd a12e 85be 86d7 083c
000000b0: 592b c9bd 4915 8fbe 9554 9dbc 9c79 c23a
000000c0: d70d 61be f9b8 8cbc 8a8b 3e3c 2a7f 0c3d
000000d0: 61ff b8bc 4f5f 0cbd 02ea 92bc 28bc 23bd
000000e0: f604 423c 0234 d5bc 05d4 b53c 2abb d73c
000000f0: abe4 98bc c65b 1fbd 1167 ae3c 2aa3 d3bc
00000100: 14c4 e9bc 2273 c7bc 5a81 82bc 8d97 6c3c
00000110: 929a 5f3c 9ff2 b0bc bbff 4b3c f048 923c
00000120: 98f8 963c ac3b 923b bc22 ff3a 7cd8 a53c
00000130: eb52 9b3a 3906 053c c419 703b 0d2f 263d
00000140: 76af d7bc c59f 9d3c c3e2 ceba ae4b 34bd
00000150: 82fb e73c d083 c23b 356f e83c 2423 f0bc
00000160: 28c0 fa3b 437b 0abd 0078 08bc 17d9 9fbd
00000170: e5e8 843c ae97 e8ba e017 d63c 09b6 b2bc
00000180: 580a 72bc 6a13 2bbd 7485 82bc 29cc 6e3b
00000190: 31c4 b13c aa77 97be 1a2d 34bc 5c20 5ebd
000001a0: f68d 30be 57d9 92bc d4d9 2cbd c60a 9dbe
000001b0: 0242 adbc 5cb5 9f3d afee 88be 217d bfba
000001c0: 6ae3 de3c d8a0 dcbc 5923 f5bc 4c10 99bd
000001d0: 4ae4 4fbd 9683 5bbe 7be1 8bbd 3710 53bc
000001e0: ddcb 3dbe 540d 023c e462 53bd da11 0fbe
000001f0: 98f8 56bc 861c 643d 201f a4be fbcb 11bd
00000200: 6d14 b9bc 2d43 75be 7e66 a43b 83cb 2fbd
00000210: 465c 95be 6c21 b0bc 4a17 693d cae2 babd
00000220: 30e7 22bd df70 d3bc ae66 b3bd aff9 3a3c
00000230: 34ec ffbd 8036 94bc 7a3c 6bbe b0a2 2d3c
00000240: 5ce1 c1bd 94d7 89be 333f c3bc 0290 7c3c
00000250: 70df 8fbe 3ca1 8dba 18b9 b13d 36fb 8dbe
00000260: 767b 4dbd d6ba 2f3d 1a55 81be 8306 62bd
00000270: c091 aebc 3c78 2cbe acf4 29bd ab81 703e
00000280: 866a 63bd ccda 843d a491 1e3d 54d3 c8bd
00000290: feb7 3d3d 3562 e0bd d684 e3bc 5648 39be
000002a0: 4bcf 703d 6807 953b 92bb 9ebe 7a3a d9bc
000002b0: 63b4 82bc eea1 27be 0426 333d 3fbb 27bd
000002c0: 05f5 333e 4e71 4a3d 3ee2 51bd 0bc8 023e
000002d0: 11b8 9e3c 4dc4 b03d 9849 f23d 0899 183d
000002e0: 4ec4 453c 5d3e 92bc f841 eabd 98ae 5bbd
000002f0: 950a ff3c 2b52 6e3d 98a9 213d b2c4 2abd
00000300: 2aeb 5ebc fa15 433d 12ee d0bc c268 e83d
00000310: c4c4 f6bc 7b19 afbc ae4b 4a3e 9ac0 40bc
00000320: 5163 9d3d cbc2 98be 18b3 46bc 2ad7 613d
00000330: 3b60 5fbe fa67 21bc 1889 a8bc cd14 1dbe
00000340: c41c 06bd 95d7 ce3c 7e60 3fbe e580 2bbd
00000350: dde0 86bc 6e09 06bd 739c 5d3c 2957 c1bd
00000360: b03c 2abd 0a91 d7bd 5aa1 a63d 301f 2b3c
00000370: f711 80be 8cc7 eebb dc0b 203d 761e 10be
00000380: e8a5 f6bc eca3 103c eb17 643e 74f9 cc3d
00000390: b397 acbd 7992 a03d 6b75 09be ea73 fabc
000003a0: 538f 983e 58a2 d03a 293a 32bd 54ea 723e
000003b0: 245a 333d 3e61 45bb 4c42 403e d60e bebd
000003c0: 2669 1d3e 388b 82bd 97d4 7c3d 52bf 8fbc
000003d0: 7d59 a03d 8594 933e ad39 50bd 01ed d1bd
000003e0: 82bc 6b3e 4d30 3c3c 41bf ef3d c623 71be
000003f0: 27c6 babd 036d 15bd b548 48be d647 b0bc
-0.019667301 0.02831339 -0.010222014 -0.01656934 -0.022065613 -0.034659542 -0.001002905 -0.01574081
-0.025806032 -0.010337242 0.039203443 -0.029994164 -0.023182038 -0.03281875 0.011018287 0.006961887
-0.028994732 -0.010822448 0.004995784 -0.028577212 -0.0053940974 0.013873195 0.0028338204 -0.019319676
0.012240978 0.014367923 -0.30957896 -0.012746235 0.0055649406 -0.18198864 -0.03028505 -0.041865923
-0.2707325 -0.09322682 0.10555688 -0.02425331 -0.04687451 -0.03903571 -0.0573034 -0.00076042314
-0.10040167 -0.05642023 -0.26012138 0.008352166 -0.09822721 -0.27945927 -0.01920537 0.0014837268
-0.21977936 -0.017178046 0.011629948 0.03430096 -0.022582712 -0.03427058 -0.01793385 -0.03997436
0.011842003 -0.026025776 0.022195825 0.026334364 -0.018663725 -0.03890588 0.02128938 -0.025834639
-0.02853588 -0.024346892 -0.01593082 0.014440429 0.013647692 -0.021600066 0.012451108 0.017857045
0.018429086 0.00446268 0.0019465308 0.02024483 0.0011850273 0.008119159 0.0036636451 0.040572215
-0.026328783 0.019241223 -0.0015784133 -0.044017486 0.02831817 0.0059361234 0.02837334 -0.029313631
0.0076523013 -0.033808958 -0.0083293915 -0.078050785 0.016224334 -0.0017745399 0.026134431 -0.021815317
-0.014772974 -0.04176656 -0.015932776 0.0036437607 0.021699997 -0.29583484 -0.010997081 -0.05423008
-0.17241654 -0.017925901 -0.042199925 -0.30672282 -0.021149639 0.077982634 -0.267446 -0.0014609435
0.027208049 -0.026932165 -0.029924082 -0.074738115 -0.050754823 -0.21436915 -0.06830116 -0.012882284
-0.18534799 0.007937748 -0.05160798 -0.13971654 -0.013120793 0.055691265 -0.32054996 -0.03559492
-0.022592748 -0.23951407 0.005017101 -0.042918693 -0.29171962 -0.021500312 0.056906976 -0.09125288
-0.03977126 -0.025810657 -0.08759819 0.011412068 -0.12496224 -0.018092394 -0.22972289 0.01059787
-0.09466812 -0.26922286 -0.023833847 0.0154151935 -0.28100157 -0.0010805498 0.08677882 -0.2773072
-0.05016657 0.04290279 -0.2526024 -0.05518199 -0.021309733 -0.16842741 -0.041493103 0.23486964
-0.05552151 0.06487045 0.038713112 -0.09805933 0.046318047 -0.109562315 -0.027773302 -0.18094
0.05879144 0.004548002 -0.3100248 -0.026517142 -0.015955156 -0.16370365 0.043737426 -0.040950056
0.17573936 0.049424462 -0.051241152 0.12771623 0.01937488 0.086311914 0.11830443 0.037255317
0.0120707285 -0.017852003 -0.11438364 -0.053633302 0.031132976 0.05818383 0.039468378 -0.04169149
-0.013605872 0.04762838 -0.025504146 0.11348106 -0.030123122 -0.021374455 0.19755432 -0.01176467
0.07684959 -0.29836115 -0.01212766 0.055136837 -0.21814053 -0.00985145 -0.020573184 -0.15339966
-0.032742277 0.025249282 -0.18689153 -0.04187097 -0.016464645 -0.032723837 0.01352607 -0.094404526
-0.041561782 -0.10525711 0.08136244 0.010444447 -0.25013706 -0.0072869714 0.03907381 -0.1407412
-0.030108407 0.0088281445 0.22274749 0.10008517 -0.08427372 0.078404374 -0.13423698 -0.03057285
0.29796848 0.0015917523 -0.043512497 0.23722202 0.043787137 -0.0030117775 0.1877529 -0.092801735
0.15372142 -0.0637421 0.06172618 -0.017547283 0.078295685 0.2882425 -0.050836254 -0.10250283
0.23021129 0.011486125 0.11706401 -0.23548803 -0.09119826 -0.036480915 -0.19558986 -0.021518629

fc2.bias f4 [40]
00000000: e958 25be 89f7 273e 6a9e 1abe a862 0dbe
00000010: 55a5 3f3e 89ca 183e 6bb5 9d3d aea8 903d
00000020: 340e 843d 6149 e83c 4b87 8c3d 81ed 063e
00000030: f4ff b33d b03c f03d 0da5 25bd f9b2 013e
00000040: 4ccd b43d baa0 28bd 18bd 30be 3eda 40be
00000050: 6177 1a3e 1164 baba 927d c0bc 6905 b2bc
00000060: 7363 8c3c be79 9c3d 217d 2c3e f362 c6bc
00000070: e4bc 82bc 21c3 d73d a8bb 313e e744 863d
00000080: a5ee 3dbe 5549 b33d b6e7 a73d cdde 23bd
00000090: c21e 1ebc 5517 4abe cbfb 3ebd 7a94 5fbd
-0.16147198 0.16403021 -0.15099493 -0.13807166 0.18715413 0.14921011 0.07700618 0.07063423
0.064480215 0.028355302 0.068617426 0.13176538 0.087890536 0.11730325 -0.040440608 0.12665929
0.0882822 -0.041168906 -0.17259634 -0.18833253 0.15084602 -0.0014220496 -0.023497377 -0.021731095
0.017137265 0.07640408 0.16844608 -0.024217105 -0.01595921 0.10535265 0.17356741 0.06556111
-0.18548067 0.08754221 0.08198492 -0.0400074 -0.009650888 -0.19735463 -0.046626847 -0.054584958

fc3.weight f4 [40, 40]
00000000: 64ff 8abc d4bc d53d 7894 7e3c 4cbf 323c
00000010: 3632 be3c ca80 0d3e ef0a ed3d a0f2 47bc
00000020: 21cd a23d 8ecf 5fbe bf6b 2f3d 15a6 843d
00000030: db68 1c3e add6 323e 773f 213e 5035 473e
00000040: e422 103e 01e1 eebd 01f9 d5bd 15fb dcba
00000050: 2c0b 333d d627 123e 59c4 08bd 7cda 51be
00000060: c1c2 b4bb 68dc a73a 4eb3 163b 108a 57be
00000070: fd3c b53d 6730 023e 13f4 f63d 9c22 723c
00000080: 3695 1f3d eaaa 763c 5a5f ff3d fe5a 54be
00000090: dca3 28be 828a 0d3d 722a 36be e83e 713c
000000a0: cb2f 973c c38b f8bc 837c 1bbd a2e1 143d
000000b0: 5482 e6bb 949e 92bc dc5f f9bb 21b6 09bd
000000c0: c175 b03b 2a51 c3bc 7e7f c9bc b67a 2cbd
000000d0: 3b1f 04bc 3dfa 28bd f2d5 98bc e133 1dbc
000000e0: 6ae8 993c 5f2e 14bd 2099 46bd 2d2e 28bd
000000f0: 50b7 52bd 8801 23bd 65d6 95bc 52b0 82bb
00000100: 21ad 8fbd 8892 15bb 2667 2abd 5c55 2cbd
00000110: bf4c 343d 2429 123d 2fed d9bc 4a54 68bd
00000120: 1e55 0c3d 5576 b43b 5611 fcbc 2619 8abd
00000130: 0a64 8dbc 489a 163c 926d debc 832c d43b
00000140: 541f 9ebc d0e4 d7bc 4fe6 523b a1eb a23c
00000150: 00d1 1a3b 5641 4dbc ad80 283d bfd4 87bd
00000160: ea20 97bc dc46 cebc 0a23 173d 2eb9 b93c
00000170: b090 a63c 98ff f8ba 13d0 223d 8ac4 7ebc
00000180: d7cc e23c fe5a 21bd 4a44 1e3c 6a42 a93c
00000190: 8d7f 83bc 8972 4dbd 9323 28bd e3f5 163c
000001a0: 365d 4ebb caea 543c 5a82 06bd 59b3 e93c
000001b0: 7559 8ebb 1490 4bbc fca1 c2bc fb17 25bd
000001c0: fbdc 1d3c bd6b 53bc e007 773c 2934 36bd
000001d0: 7def 27bd c1c5 bebc 93cc 153d 1cb1 d33c
000001e0: dbf4 32bd 30a2 be3d bea2 abbb 4486 243d
000001f0: 7184 303d 2dfc 8f3d c538 003e 9f04 c3bd
00000200: e817 743d 9610 5bbe 8004 813d 2a09 333e
00000210: b71e 1f3e 6a9e ce3d 9577 b7bc dd0b 933e
00000220: 3aed 8d3e 9c2f 17be a5e0 bd3d 4c66 133c
00000230: 7333 813d 35d9 bc3d 493b 45be a3dc 2fbe
00000240: e53f 5bbd c7fa 573d 40f4 973d 1d13 c83d
00000250: 0a1d 00bd e4e0 9a3d c8ca 123e f488 23be
00000260: 67a5 efbb ff55 e03d 0429 8b3d ca54 ecbd
00000270: 37a3 88be e75d 6abd d66e 02be c291 08bc
00000280: 9a88 2abd 0e31 92bc e627 0d3b 2df0 0a3c
00000290: a6f3 6f3c 86d5 16bd 5a86 21bd f545 98bc
000002a0: 3d9a aebb 30f5 1b3c b92e 323d 2642 113d
000002b0: d9ec c03c 5126 fd3b 8305 f8bc 8e95 3fbd
000002c0: 5a53 03bc 30ce c1bc b722 8a3c 2ba9 1e3c
000002d0: 867d 35bd f998 23bd 63d1 59bc 1c18 f23c
000002e0: 7853 c93c c536 0b3d b4e7 72bc a677 aebc
000002f0: b457 c93c 938c 12bd 549a 1f3c 32cc aa3c
00000300: e456 243d 0867 b1bc ed63 3e3d 1df7 1fbd
00000310: 3041 abbc 4d2c e33c bc71 b83b b03a 0abc
00000320: 5e34 7d3c df70 0c3d da1d 133c 08bd 71bc
00000330: 58d0 5e3d 6731 053d db9b 7a3d 6525 20bd
00000340: 70c9 ec3c fc6a 08be 2a11 f93b 0325 bcbc
00000350: 014a 203e 3eab f83d cf54 223e 2688 ac3d
00000360: 2001 0c3e dd43 d8bd aec0 d9bb e289 103d
00000370: cdee f33a d794 053e 5fc0 d3bd 51cb 39be
00000380: 07c8 16bd 8960 a03d 8d46 b7ba 0bcb 80bd
00000390: 6b11 b23d 64ee 9d3d cfbd 9e3d 9a47 103e
000003a0: 41f5 e6bc 20cc f9bc f3d8 823d e7ee 46be
000003b0: e5be cabd 91fa 92bc 1d61 27bc 28b0 e1bc
000003c0: 6a71 c93c 8b89 ae3c 0c3d 7dbc 7799 113c
000003d0: edd3 76bc 30f1 b23b 97da d03d a6f2 d7bc
000003e0: 2cf7 873d 88ec 1cbd f99c 163d 710d a23e
000003f0: d007 563d b01b 503d 9484 d13d 303e 7e3e
-0.016967483 0.10436407 0.015538327 0.010909867 0.023217302 0.1381866 0.11574351 -0.012203842
0.079492815 -0.2185652 0.042827364 0.0647699 0.15274374 0.17464705 0.15746866 0.19453931
0.1407581 -0.1166401 -0.10447884 -0.0016859496 0.043711826 0.14273009 -0.033390377 -0.20493501
-0.0055163805 0.0012806775 0.0022995058 -0.2104876 0.08849523 0.12713777 0.12058272 0.014778759
0.038960658 0.0150553975 0.12469359 -0.20737836 -0.16468757 0.03455592 -0.17789629 0.014724471
0.018455407 -0.030340081 -0.03796054 0.036347993 -0.0070345793 -0.017897882 -0.0076103043 -0.033620957
0.005385131 -0.023842413 -0.024596926 -0.042109214 -0.008064087 -0.04125427 -0.018656705 -0.009594888
0.018787581 -0.036177035 -0.048485875 -0.04105966 -0.05144435 -0.039796382 -0.018290708 -0.003988304
-0.070154436 -0.0022822935 -0.041602276 -0.042073593 0.044018503 0.035683766 -0.026602356 -0.05672101
0.03426086 0.0055072703 -0.030769985 -0.06743078 -0.017259616 0.009192057 -0.027151857 0.006475033
-0.019302048 -0.026354223 0.0032180732 0.019887747 0.002362311 -0.012527784 0.04113834 -0.06632375
-0.018448312 -0.025180273 0.03689865 0.022671308 0.020332664 -0.0018997071 0.039749216 -0.015549788
0.027685566 -0.039393418 0.009659836 0.020661552 -0.016052032 -0.050158057 -0.04104955 0.009213897
-0.0031488664 0.012995431 -0.032839157 0.028527902 -0.00434416 -0.012424488 -0.02375888 -0.040306073
0.009635205 -0.012904105 0.015077561 -0.044483338 -0.04099988 -0.023287656 0.03657205 0.025841288
-0.043690544 0.093082786 -0.0052379062 0.04016711 0.043095056 0.070305206 0.12521656 -0.09522366
0.05959311 -0.21393046 0.062996864 0.17483965 0.1553906 0.10088809 -0.022395888 0.28719988
0.27720052 -0.14764255 0.09271363 0.008996557 0.06308641 0.092211165 -0.19260897 -0.1717401
-0.05352773 0.052729394 0.07419634 0.097692706 -0.031277694 0.07562426 0.14335167 -0.15970212
-0.0073134187 0.109539025 0.067949325 -0.1153961 -0.26687023 -0.05721846 -0.12737593 -0.008335533
-0.04163418 -0.017845657 0.0021538674 0.008480114 0.014645493 -0.036824726 -0.03943477 -0.018588046
-0.005328445 0.0095189065 0.04350159 0.035463475 0.023550438 0.007725515 -0.030276066 -0.046773486
-0.008015478 -0.023657888 0.016862256 0.0096838875 -0.04430916 -0.039940808 -0.013294551 0.029552512
0.024575934 0.03398778 -0.01482575 -0.021297287 0.024577953 -0.035778593 0.009741385 0.020849321
0.040121928 -0.021655574 0.046482015 -0.039054025 -0.020905107 0.027731085 0.0056287926 -0.008436844
0.01545438 0.03428733 0.008979285 -0.014754541 0.05439791 0.032517817 0.06118379 -0.039098162
0.028904647 -0.13322061 0.007600923 -0.022966867 0.1565323 0.12142037 0.15852664 0.08424406
0.13672304 -0.10559819 -0.0066452837 0.035287745 0.0018610597 0.13045059 -0.10339426 -0.18143965
-0.036811855 0.078309126 -0.0013982818 -0.062887274 0.086947285 0.07711485 0.07751047 0.14089814
-0.028193118 -0.030492842 0.06389036 -0.19427072 -0.098996915 -0.017941745 -0.010216025 -0.027549818
0.024590213 0.02130582 -0.015456449 0.0088866865 -0.0150651755 0.0054608807 0.10197943 -0.026360821
0.06638941 -0.03831151 0.036770795 0.3165088 0.052253544 0.050807655 0.102303654 0.2482841

fc3.bias f4 [40]
00000000: 1c80 923d e253 92bc 2d05 debb 1142 56bd
00000010: 7f2b f3bd 1b0f fd3d 0990 dc3d 13fc 7b3d
00000020: 3a01 0d3e a659 46bd fa81 bebc 70c6 203d
00000030: 5428 05be d93a 19bd 5a94 f9bd c51b 00bd
00000040: 3617 2dbe 5e7a 8fbd 38ed 21bc e820 92bc
00000050: d7a9 5cbd 85ba 073e 3608 9b3d ea6d 9dbc
00000060: 811a e4bb 5ff7 2abe 9173 9d3c 8781 bbbd
00000070: aa4b 093e b95a 94bd b43f 1ebe 79bd 803d
00000080: 57b1 463c 7e08 843d 8d84 f0bd 70e0 003e
00000090: 1807 953d f769 cebc a154 b13d 1393 123e
0.07153341 -0.017862264 -0.0067755193 -0.0523091 -0.118735306 0.12356397 0.1076966 0.061519694
0.13769999 -0.04842534 -0.023255337 0.039251745 -0.13003665 -0.037409637 -0.12186499 -0.031276483
-0.16903386 -0.070057616 -0.0098832175 -0.017837957 -0.05387291 0.13254745 0.075699255 -0.01921745
-0.0069611673 -0.16695927 0.019220145 -0.09155565 0.1340777 -0.072438665 -0.15453988 0.06286139
0.012127242 0.06446932 -0.11744032 0.12585616 0.07276744 -0.025197012 0.0865872 0.14313917

fc4.weight f4 [20, 40]
00000000: 6f05 82bd 8302 8e3d b83f 19bc 4aef 4bbe
00000010: 149c 2cbd 3b06 09be 9c6b d03d bc8d f1bc
00000020: 455b 17be b57c a03c f836 2e3d 044b 0fbe
00000030: 1b08 6e3d 1f4a ffbd 9f8f 353d abdf e0bd
00000040: 8153 2ebd 26f3 38bc f222 ddbc d686 763e
00000050: d0d4 a33c 6533 9bbd a9bd 5dbd 73dd 13be
00000060: af76 0cbe 68bc 103d a401 84be 5771 abbd
00000070: 3e54 1cbe c84d 1dbe 1b88 8f3d 0368 0ebc
00000080: 486b 56be 4a25 20be a298 303d 2a6a 3d3d
00000090: b46d 183e f165 07bd 7c9b 19be 310b 44bb
000000a0: cf4c 97bd a20c 973b fec0 40bd f765 32be
000000b0: c2a1 9ebd ee4a 97bd a33e 003d cb73 16be
000000c0: af74 fdbc ab37 82bd d339 b43c add4 ffbd
000000d0: 0a0a 12bd b557 17be 029a aa3d 3f49 94bd
000000e0: 3910 10bb 355e a33d e9c3 d1bd fef2 29bd
000000f0: e67b ebbd 30a5 89bd c84f ccbd 579b fdbd
00000100: e6b4 febd c8a6 f03c 0f93 8bbe 98bd f7bc
00000110: c25b 1cbe 7d38 adbd da0e 653d 3ded 21be
00000120: 7a54 c1bd 4829 ebbd 9832 72bd 34b2 1a3c
00000130: c84d c73d f8c9 aa3c 4bab 29be d0e3 2bbe
00000140: 557a 293e 4107 36bd 610c 84bd 543c f43b
00000150: 74af afbd a2f2 9a3d fcb8 05be 29ea 953d
00000160: e1c8 ed3d bc00 50bd f360 4cbd 9a5e a9bc
00000170: 5c44 bc3c 5ae4 673e 9657 6abc eb1a 483e
00000180: 2b4b 84bd 7d75 8d39 31ee 1f3e 8edd 44be
00000190: ff2c 3d3d 6d34 923d 78c4 8c3d 9a31 9abb
000001a0: 4776 e03c 642e 7fbd 0c26 1abc 006a 74bd
000001b0: fe44 e23d d2aa 323e a159 a13c 12cd 293c
000001c0: 06a5 623d e372 833c a838 84bd 4ae3 bd3c
000001d0: e5d8 3a3d caac 5b3d 4747 99bc ffb3 f53c
000001e0: cddc 1dbe 1570 8cbc 389f 6f3d 3ac1 aabe
000001f0: 58de 7b3d e498 22be f855 143d e0df 3cbe
00000200: 0145 98bd 54a4 283d c31b 8d3c d6cc f2bd
00000210: 306e fdbc e299 79be e969 a93c e720 49be
00000220: 47bd c4bc 7e88 ea3c 068b 71be cf42 3dbc
00000230: 3814 29be 7e84 c2bd 7a9b b3bd 69f2 7cbe
00000240: 42db 54be 8c4b 863d 05c5 5bbe fa2d 313c
00000250: 46e2 51bd 8e00 0bbe bc68 deba b3a5 32be
00000260: 5c80 3dbe 0325 14bd d10b 953d 4a07 e0bd
00000270: bb42 2b3e 901b 203d 3d8e 18be 80c5 08be
00000280: 1c8a 4f3e 3e1c bc3b 29d9 89bd 827c 863e
00000290: 0bcc 9a3d 8fa0 ef3d b3f5 193e ccd3 2d3e
000002a0: 6748 edbd 447a 59bc 742c d13d 9db1 553e
000002b0: a05d 91bd 63f7 5c3e 242f ff3c 5d0f 6e3e
000002c0: 088d 5ebd 34c3 b93b b41e 113e 0392 463d
000002d0: 7c4d 053e cde5 4f3e 987c 363e 1eee 4d3e
000002e0: 9da7 6a3e 16cf 703d 4838 703e 0f21 053b
000002f0: b092 c53d 001e d93d 288e 51bd 501f fa3d
00000300: 055d 693e 5507 383e 8475 15bc c835 653d
00000310: 016c 3dbe 70f7 593d 20bf 4b3d 1328 423e
00000320: 0905 d43c 6dfd 32bd ceb5 c6bc 2515 203e
00000330: 089e 58bd c872 9a3d 5215 183e cf8c a33d
00000340: fa7d f8bc d62a d03c 4091 163d 811f 443e
00000350: 0419 adbd 66ef f13d ac11 bebd c152 463e
00000360: 8378 8bbd f95f 123d 1d31 d03d 0690 0dbd
00000370: 894c 313d 9e5a 513e f53b e43d 47f7 433e
00000380: 1bf0 f03d cee3 913d 1245 0d3e 68af 83bd
00000390: 6337 bf3d 3d58 bc3d f639 88bd 51c2 863d
000003a0: 1d07 c23d cae8 373e d2ea b0bd d526 e83d
000003b0: 599f 17be 8b39 633d 6404 b83c 8038 f83d
000003c0: b045 613e 9278 50bd 72c2 843d 8405 523e
000003d0: 702b 10bd 61a8 913d 9a19 3d3c 1649 ea3d
000003e0: 6d3a cfbd 4a80 d33c 6e85 e2bc d9a2 903d
000003f0: 28ff 5ebd 7e35 ee3d 20d6 89bd 91e3 853d
-0.063486926 0.06934073 -0.009353571 -0.199155 -0.042141035 -0.13381283 0.10176775 -0.02948653
-0.1478091 0.019590715 0.04253289 -0.1399346 0.0581132 -0.12465309 0.04432642 -0.10980161
-0.042560104 -0.01128844 -0.026994202 0.24074873 0.019998938 -0.07578162 -0.054135952 -0.14439945
-0.13717149 0.03533593 -0.25782502 -0.08371227 -0.15266511 -0.15361702 0.07008382 -0.0086917905
-0.20939362 -0.15639225 0.043114312 0.046243824 0.14885598 -0.033056203 -0.15000719 -0.0029913897
-0.07387697 0.0046096602 -0.04705905 -0.17421709 -0.077456966 -0.073873386 0.031309735 -0.14692609
-0.030939428 -0.06358274 0.022000229 -0.124917366 -0.035654105 -0.14779551 0.08330156 -0.07240533
-0.0021982326 0.07976953 -0.10242445 -0.0414915 -0.11498241 -0.0672096 -0.099761546 -0.12383144
-0.124368474 0.029376402 -0.27260634 -0.030241773 -0.15269378 -0.0845804 0.055922367 -0.15813155
-0.09439941 -0.11482483 -0.05913028 0.009441901 0.097316325 0.02084826 -0.1656925 -0.16786122
0.16550572 -0.04444051 -0.064476736 0.0074534807 -0.08578387 0.0756581 -0.13058847 0.07320053
0.1161058 -0.05078195 -0.049897145 -0.020674992 0.022981815 0.22645703 -0.014303109 0.19541518
-0.0645965 0.0002698115 0.15618207 -0.19225141 0.04618549 0.07138906 0.06873411 -0.00470562
0.027400149 -0.0623001 -0.009408485 -0.059671402 0.110483155 0.17447975 0.019696059 0.010363834
0.05533316 0.016045993 -0.06456119 0.023179669 0.045617003 0.05363158 -0.018710745 0.029993055
-0.1541626 -0.017143289 0.058501452 -0.33350545 0.06149134 -0.15878636 0.0362148 -0.18444777
-0.074350365 0.04117234 0.017225152 -0.118554756 -0.03093633 -0.24375108 0.020680385 -0.19641457
-0.024016036 0.028629538 -0.2358819 -0.011551573 -0.16511619 -0.09497927 -0.08769889 -0.24701847
-0.20786765 0.06557378 -0.21461876 0.010814184 -0.05124118 -0.1357443 -0.0016968469 -0.17446022
-0.18505996 -0.03616811 0.072776444 -0.1093889 0.16724674 0.039088786 -0.1489801 -0.1335659
0.20267528 0.0057406714 -0.06730873 0.26266867 0.07558449 0.11700546 0.15035133 0.16975325
-0.11586075 -0.013273779 0.10213557 0.20868535 -0.07097936 0.21578746 0.031150408 0.23248048
-0.054333717 0.005669022 0.14171869 0.04847909 0.13017839 0.20302506 0.17820966 0.20110366
0.22915502 0.058791243 0.2345897 0.0020313894 0.09647119 0.10601425 -0.05116096 0.12213004
0.2278939 0.17971547 -0.009122256 0.055959493 -0.18498231 0.05321449 0.049742818 0.189606
0.025881307 -0.043698717 -0.024256613 0.15633066 -0.052885085 0.07541424 0.14851883 0.079858415
-0.030333508 0.02541105 0.036759615 0.19152643 -0.08452037 0.1181324 -0.092807144 0.19367506
-0.06810095 0.035736058 0.101656176 -0.03456118 0.04328588 0.20444724 0.111442484 0.19137298
0.117645465 0.071235284 0.1379588 -0.064299405 0.09336736 0.091965176 -0.0665168 0.06580032
0.09474013 0.17959896 -0.086385384 0.113355316 -0.1480688 0.0554748 0.022463031 0.121201515
0.2199924 -0.050896235 0.064824 0.20509917 -0.035197675 0.07112194 0.011541748 0.11439721
-0.10118566 0.025818009 -0.027651515 0.07062311 -0.054442555 0.116312966 -0.06730294 0.065375455

fc4.bias f4 [20]
00000000: a40d f0bd 4faf 04be 28da 42be 1bd5 67bd
00000010: cc3a e23c 273d 1b3e 7a91 733d 4722 213c
00000020: 233d 31bd 1ba6 0d3e e492 853d 21ff 313c
00000030: 2a70 053e 985c 9e3d a264 113e 760d e63d
00000040: 0298 703d ac5d 65bb 60c6 043e 593f 77bd
-0.11721352 -0.129575 -0.19028533 -0.056599718 0.027615927 0.15160047 0.05946491 0.0098348325
-0.043271195 0.13832895 0.06522158 0.01086405 0.13031068 0.077325046 0.14198545 0.11233036
0.058738716 -0.003499846 0.12966299 -0.060363147
