data/models/models/output/phi_G.pth (torch, 17207 bytes, 8 tensors)

fc1.weight f4 [25, 4]
0.23236685 0.3922573 0.3336366 0.09512107 0.4024378 0.099639595 -0.56015503 0.2324478
-0.01182702 -0.56244457 -0.2984448 -0.1973957 0.18821909 -0.038625337 -0.28326857 0.05769044
-0.905764 -0.32212013 -0.22376636 0.4161037 -0.32862183 -0.2674046 -0.6298692 -0.47715986
0.5047068 -0.44182524 -0.17215319 0.19958827 -0.12873642 -0.27187288 -0.34276286 0.19048053
-0.53420156 0.121868014 0.028213013 -0.20156603 -0.52610505 -0.039492995 0.19829664 -0.40089044
0.69184864 -0.16910999 -0.3139377 0.39886057 -0.016167419 0.056443706 -0.029280739 -0.93991274
-0.09975015 0.56632864 -0.69449306 0.5691405 0.20933856 0.08088625 0.45451328 -0.331615
-0.2393184 0.5465795 0.82543015 -0.23801011 -0.15007424 -0.38718534 0.4021678 -0.10366451
0.043574013 0.48704797 -0.50409853 -0.28126603 -0.23569693 0.3979839 -0.046893034 0.34908876
-0.3052943 0.09609974 0.05851919 -0.6147727 -0.42821783 -0.07758897 -0.21222211 -0.31674105
0.13354799 -0.25547585 0.13405964 0.42695984 0.7113007 -0.078821056 0.40260303 -0.15440275
-0.05691092 -0.55741215 0.3630209 0.5829723 0.41686997 -0.28522688 0.14570227 0.36396492
-0.20300357 -0.48211673 -0.47554687 0.12040902
00000000: 93f1 6d3e f3d5 c83e 6bd2 aa3e d6ce c23d
00000010: 540c ce3e d80f cc3d 5266 0fbf cc06 6e3e
00000020: 1ec6 41bc 5efc 0fbf c2cd 98be 1922 4abe
00000030: 81bc 403e 9a35 1ebd 9408 91be d04c 6c3d
00000040: 26e0 67bf eeec a4be 0223 65be 8b0b d53e
00000050: 1f41 a8be 41e9 88be 1c3f 21bf 4c4e f4be
00000060: 7734 013f eb36 e2be ed48 30be de60 4c3e
00000070: 7bd3 03be ec32 8bbe 9d7e afbe 540d 433e
00000080: 6fc1 08bf f095 f93d fa1e e73c 5367 4ebe
00000090: d2ae 06bf 68c3 21bd 460e 4b3e 8341 cdbe
000000a0: fe1c 313f 2b2b 2dbe 71bc a0be 7437 cc3e
000000b0: 8971 84bc 8431 673d 29de efbc 1f9e 70bf
000000c0: cf49 ccbd eafa 103f 4cca 31bf 31b3 113f
000000d0: d95c 563e b1a7 a53d f7b5 e83e 71c9 a9be
000000e0: e20f 75be a2ec 0b3f 644f 533f ecb8 73be
000000f0: 10ad 19be 283d c6be f0e8 cd3e 0f4e d4bd
00000100: aa7a 323d 5a5e f93e 9a0c 01bf 1a02 90be
00000110: 895a 71be 8cc4 cb3e e912 40bd c3bb b23e
00000120: 894f 9cbe f1cf c43d d1b1 6f3d be61 1dbf
00000130: 5e3f dbbe f7e6 9ebd c150 59be e22b a2be
00000140: cec0 083e bbcd 82be ee46 093e 7b9a da3e
00000150: cd17 363f ef6c a1bd fc21 ce3e c11b 1ebe
00000160: 6d1b 69bd 90b2 0ebf e0dd b93e ac3d 153f
00000170: fb6f d53e 4209 92be fa32 153e 9c59 ba3e
00000180: 2be0 4fbe 01d8 f6be e17a f3be 0199 f63d

fc1.bias f4 [25]
0.19724594 0.19696194 0.23630193 -0.40064225 0.009699066 -0.35880753 0.11268055 0.21186425
-0.23351014 -0.06584401 0.4220006 -0.028896088 -0.17188472 -0.10042033 -0.29520714 0.44674724
0.2806762 0.06488783 -0.43351543 0.079673044 0.1736165 0.3614206 -0.020331422 0.19367605
-0.25857094
00000000: d7fa 493e 64b0 493e 22f9 713e fb20 cdbe
00000010: d5e8 1e3c 9fb5 b7be 0fc5 e63d f1f2 583e
00000020: 481d 6fbe 39d9 86bd 7610 d83e 7db7 ecbc
00000030: 8c02 30be 2da9 cdbd 6425 97be 0ebc e43e
00000040: cab4 8f3e e9e3 843d bcf5 ddbe 9f2b a33d
00000050: 86c8 313e 1f0c b93e 158e a6bc 0453 463e
00000060: 6963 84be

fc2.weight f4 [40, 25]
0.038959797 -0.13293782 0.034623813 -0.03845352 0.07198637 -0.0913452 -0.09274233 0.2385837
0.10272333 -0.06773533 0.12345095 -1.1345783 -0.17293905 0.17769124 -0.34925863 0.082680374
0.20709512 -0.03603771 -0.3953376 -0.036451712 0.18429296 -0.18434513 -0.08390431 0.07509463
-0.20007993 0.0979005 0.13686326 -0.034566514 -0.13895312 -0.35976034 0.064937726 0.14090422
-0.11410146 -0.268459 0.0023927935 0.26038286 0.18842286 0.23115356 -0.0068017975 -0.14967576
-0.028706022 -0.14118366 -0.2714084 0.44542557 -0.0808174 -0.12491411 0.31582496 0.039007194
0.15900332 -0.026490392 0.0014012154 0.16920286 -0.112253316 0.011071984 -0.46968812 -0.027148655
0.20737797 0.03374633 -0.11554897 -0.23748694 0.39448524 -0.0029544132 -0.14597973 -0.36554542
-0.086710066 -0.109715946 0.0127608515 0.025287658 0.044501945 -0.16725725 0.084868565 0.4643598
-0.010901301 0.19295815 0.06443046 -0.0046707713 -0.24599679 -0.05702827 0.13199289 0.26978317
-0.21362199 -0.222561 0.22595298 0.34159014 0.18604405 -0.25123027 -0.4080238 -0.48973015
-0.19552542 -0.245294 0.17638165 0.066997774 0.12491534 -0.31973445 -0.07243257 -0.03515656
-0.10639542 -0.11193046 -0.062844865 -0.2997388 0.038422827 0.06667359 -0.06391719 0.091559336
-0.18212958 -0.1646057 0.1748916 -0.028472025 0.08422617 -0.09710193 0.023061289 0.022070905
-0.11778664 0.13765827 -0.114683434 -0.0013196204 -0.10447748 0.12970605 0.14595152 0.11320047
-0.07963985 -0.0721201 -0.1765101 -0.08014937 -0.14640477 0.012451959 -0.013808353 -0.3807348
-0.21109276 0.18618052 -0.34753948 0.03330727 -0.028918698 0.1944615 -0.5771322 -0.0601918
-0.032633215 0.22817206 -0.20511127 -0.12573741 -0.11303342 -0.23422225 0.26138955 -0.03693793
-0.37097424 0.1353382 -0.5655506 0.23700128 -0.028810676 0.08215359 -0.20578896 -0.08205859
-0.05158499 -0.051256172 -0.18442428 -0.10229814 -0.1848689 -0.07976408 0.04527627 -0.12483907
0.041727252 -0.12289144 -0.038478952 -0.072341144 -0.09240324 -0.011133452 0.01651978 0.13105145
-0.19147354 0.13898343 -0.1511445 0.109892875 0.1409003 0.0890686 -0.12472466 -0.07312663
0.25865063 0.052655924 0.046545714 0.02410482 0.40925547 -0.040148567 0.02188649 -0.10668373
0.24052115 -0.17590943 0.48208678 0.24369997 0.2895898 0.4380175 -0.15017708 0.06644579
-0.024944095 0.20863597 -0.06341019 -0.17654803 -0.05685638 0.28157204 -0.10117478 0.28200245
-0.06972803 -0.076095186 -0.092477575 0.13402078 -0.21483964 0.07295601 0.25920227 0.06920082
0.17291999 0.023858057 0.27578774 0.48866937 -0.017392525 -0.08210213 -0.07405542 -0.0005376558
-0.18880555 -0.08134941 0.43784156 0.11954352 -0.15977101 0.3886796 0.08328147 0.28917652
-0.099608704 0.10869368 0.17611031 0.12358104 -0.16538659 -0.51066023 -0.24883239 0.1077428
0.046368342 -0.1395112 -0.15441476 0.15866435 -0.032906715 0.12640472 -0.097849585 -0.22978768
-0.03487644 -0.053700063 -0.2135831 0.050995313 -0.30348176 -0.009357008 0.18191667 -0.343934
0.1645404 -0.34267065 0.039302647 -0.09477422 0.15945017 -0.08202721 -0.18200007 -0.15847091
00000000: 4f94 1f3d da20 08be b3d1 0d3d 7081 1dbd
00000010: 976d 933d 3113 bbbd b1ef bdbd 494f 743e
00000020: 9c60 d23d d2b8 8abd dad3 fc3d dd39 91bf
00000030: ef16 31be b1f4 353e 07d2 b2be 5454 a93d
00000040: be10 543e 479c 13bd b169 cabe 644e 15bd
00000050: 4bb7 3c3e f8c4 3cbe 06d6 abbd 37cb 993d
00000060: c1e1 4cbe 0f80 c83d e225 0c3e 9e95 0dbd
00000070: ba49 0ebe 8232 b8be 12fe 843d 3249 103e
00000080: 07ae e9bd 7573 89be 6ad0 1c3b e750 853e
00000090: ecf1 403e 85b3 6c3e 9de1 debb 9a44 19be
000000a0: e428 ebbc 7392 10be 0bf6 8abe d20e e43e
000000b0: 9883 a5bd f8d2 ffbd cfb3 a13e 02c6 1f3d
000000c0: c4d1 223e 6102 d9bc fda8 b73a 8443 2d3e
000000d0: 11e5 e5bd 4467 353c f67a f0be db66 debc
000000e0: e45a 543e 9739 0a3d f0a4 ecbd c72f 73be
000000f0: f8f9 c93e d49e 41bb b67b 15be c528 bbbe
00000100: 0c95 b1bd c1b2 e0bd e412 513c 1028 cf3c
00000110: ac47 363d 7c45 2bbe 92cf ad3d 91c0 ed3e
00000120: 5f9b 32bc d296 453e 1ef4 833d 450d 99bb
00000130: 95e6 7bbe 7a96 69bd 2529 073e 0521 8a3e
00000140: b9bf 5abe 08e7 63be 3860 673e e7e4 ae3e
00000150: 5582 3e3e 41a1 80be 7fe8 d0be e9bd fabe
00000160: d137 48be 5a2e 7bbe 649d 343e 2136 893d
00000170: 9dd3 ff3d 3cb4 a3be 8757 94bd 5300 10bd
00000180: d8e5 d9bd cc3b e5bd cfb4 80bd 5d77 99be
00000190: 4161 1d3d 2a8c 883d 04e7 82bd 7683 bb3d
000001a0: 2d80 3abe 668e 28be c916 333e 2a3e e9bc
000001b0: c57e ac3d 60dd c6bd 07eb bc3c 0bce b43c
000001c0: 1f3a f1bd 4af6 0c3e 26df eabd 1df7 acba
000001d0: 4af8 d5bd aad1 043e 5174 153e a6d5 e73d
000001e0: 381a a3bd b4b3 93bd 10bf 34be 5a25 a4bd
000001f0: 22eb 15be 4d03 4c3c 6e3c 62bc acef c2be
00000200: b328 58be 1ba6 3e3e b2f0 b1be 346d 083d
00000210: e8e6 ecbc ea20 473e f0be 13bf ad8b 76bd
00000220: 68aa 05bd f0a5 693e b008 52be 4fc1 00be
00000230: 117e e7bd f5d7 6fbe dad4 853e 3a4c 17bd
00000240: 56f0 bdbe 1996 0a3e edc7 10bf 77b0 723e
00000250: 5e04 ecbc 2440 a83d 57ba 52be 560e a8bd
00000260: c84a 53bd fef1 51bd b8d9 3cbe b081 d1bd
00000270: 464e 3dbe 5a5b a3bd 9c73 393d a0ab ffbd
00000280: 32ea 2a3d 82ae fbbd 1b9c 1dbd 9827 94bd
00000290: e93d bdbd 1569 36bc 7d54 873c 5a32 063e
000002a0: a411 44be ac51 0e3e a0c5 1abe 840f e13d
000002b0: 2b48 103e 9969 b63d a46f ffbd 6ac3 95bd
000002c0: db6d 843e bdad 573d b8a6 3e3d 7977 c53c
000002d0: ef89 d13e d372 24bd 4c4b b33c 007d dabd
000002e0: 2d4b 763e 9a21 34be 14d4 f63e 7c8c 793e
000002f0: 1d45 943e d443 e03e 05c8 19be bb14 883d
00000300: 8f57 ccbc aba4 553e 34dd 81bd 02c9 34be
00000310: 3ce2 68bd 362a 903e b934 cfbd a062 903e
00000320: 92cd 8ebd cbd7 9bbd e264 bdbd be3c 093e
00000330: ecfe 5bbe f669 953d 29b6 843e 29b9 8d3d
00000340: f011 313e f971 c33c 0d34 8d3e df32 fa3e
00000350: c57a 8ebc 2925 a8bd 5eaa 97bd 78f1 0cba
00000360: 3e56 41be 859a a6bd c52c e03e 3cd3 f43d
00000370: 039b 23be 0301 c73e 7a8f aa3d f20e 943e
00000380: a6ff cbbd cb9a de3d 4356 343e 0e18 fd3d
00000390: 1a5b 29be a1ba 02bf ebcd 7ebe 42a8 dc3d
000003a0: bbec 3d3d 06dc 0ebe e71e 1ebe e878 223e
000003b0: 31c9 06bd 3d70 013e 5d65 c8bd 764d 6bbe
000003c0: 99da 0ebd 99f4 5bbd 87b5 5abe 76e0 503d
000003d0: f661 9bbe 234e 19bc 5d48 3a3e 1e18 b0be
000003e0: 477d 283e 8772 afbe d0fb 203d fc18 c2bd
000003f0: e846 233e e2fd a7bd 3a5e 3abe 3346 22be

fc2.bias f4 [40]
-0.11476251 -0.014151359 -0.09149715 0.050935395 -0.038533747 -0.15529007 0.0062544052 0.036437385
0.12737294 0.055051677 0.055463832 -0.11782539 0.009605646 0.12056031 -0.062088013 0.09319005
0.090718225 -0.16483116 -0.100560114 -0.08968966 -0.10480391 -0.04732946 -0.14907551 0.061583463
-0.11029688 -0.11129703 -0.15045457 -0.27003098 -0.16798502 -0.069466956 -0.18045878 -0.088911645
-0.06029317 -0.0030767918 0.08427145 0.003147313 -0.009983782 0.13861053 0.038454656 -0.096991725
00000000: 9b08 ebbd 1adb 67bc dc62 bbbd a2a1 503d
00000010: 90d5 1dbd 5c04 1fbe c1f1 cc3b 5e3f 153d
00000020: 0d6e 023e de7d 613d 0b2e 633d 704e f1bd
00000030: 0061 1d3c 53e8 f63d 0050 7ebd 6dda be3d
00000040: 7aca b93d 80c9 28be 76f2 cdbd 36af b7bd
00000050: 6fa3 d6bd 89dc 41bd 40a7 18be f13e 7c3d
00000060: 55e3 e1bd b2ef e3bd c310 1abe 8041 8abe
00000070: 4404 2cbe b144 8ebd 30ca 38be 4f17 b6bd
00000080: f9f5 76bd 00a4 49bb 8396 ac3d 2643 4e3b
00000090: 0493 23bc ebef 0d3e a182 1d3d 99a3 c6bd

fc3.weight f4 [40, 40]
-0.07131508 0.2354443 0.3572635 -0.62231153 -0.10088791 -0.1723568 -0.002567445 -0.20977537
0.19262472 0.37817597 -0.037227698 0.3931164 -0.5151484 -0.11044556 0.07090893 0.077970654
0.011854196 -0.18605909 -0.05325158 0.22831734 -0.008201826 -0.22189409 -0.27416453 -0.14063878
-0.28969157 0.0057338863 0.04778085 -0.053856812 0.04623749 0.0021543964 0.052448034 0.03902416
0.09015494 0.017666172 0.2309697 -0.10885174 -0.038184203 0.0068156994 0.21466748 -0.20645505
0.08971861 0.16653058 0.4523974 -0.084343076 -0.12365641 -0.35052273 -0.024291474 -0.32506636
-0.06064685 0.17740734 0.004327854 0.31278917 0.0017794321 0.07368834 0.027437903 -0.021145504
0.043097693 0.020020884 -0.055810865 0.18237454 0.11245685 0.0041945237 -0.18705738 0.07649713
0.047911733 -0.06918877 -0.1913059 -0.14341411 -0.068137705 0.04765429 0.06354228 0.09517543
0.08149099 -0.03990275 0.29020208 0.07677555 -0.05034706 -0.04262521 0.15276417 0.021954017
0.1338516 0.031125475 -0.2708717 -0.08969997 -0.10941471 0.016993271 0.119955495 -0.08481312
0.07541613 0.06608823 -0.11641346 -0.037146755 0.006842151 0.0052667065 0.050819892 -0.14140941
-0.19784822 -0.21027711 0.18974303 -0.0132933315 0.16405047 0.009196067 -0.10652793 -0.015480193
-0.2670543 0.32597908 -0.053349093 0.0062511703 -0.06877229 0.14475054 -0.13606942 0.14631286
0.19379213 -0.082729824 0.1611411 0.12673809 -0.088453874 0.063206755 -0.1765154 0.13446991
-0.17655456 -0.114203 -0.063203976 -0.34120753 -0.10285889 0.19232164 0.050304126 0.24433792
-0.18400075 0.1253981 0.024611214 -0.0026707232 -0.1891394 -0.04068702 0.04032848 0.043456133
-0.06355454 -0.21773313 0.17110817 0.09946671 -0.15902987 0.12120939 0.16786833 -0.09600866
-0.29132763 0.14497645 0.23115064 -0.016229419 0.08591865 0.16479322 -0.040822554 -0.011620227
0.17039014 -0.044890974 0.13444914 0.054440558 -0.07508063 -0.11724015 -0.25032386 0.0039706877
0.040095706 0.2853139 0.6230304 0.1186828 0.042683866 -0.3058988 -0.10952128 -0.33742166
-0.08348013 0.36588633 0.12515993 0.44528723 -0.093973495 0.07696755 0.0639848 0.04333723
-0.08399232 -0.042952705 -0.17774577 0.03629202 -0.03864963 -0.015441456 -0.3363627 0.1625799
-0.015459858 -0.04887884 -0.027731674 -0.10741788 -0.07126927 0.05942623 0.09872123 0.1503572
0.21387514 -0.04170988 0.21458773 -0.045070954 0.12246984 -0.08002251 0.25117633 -0.19396158
0.036438417 0.08548091 -0.27760157 -0.37781602 -0.14657372 0.31444395 -0.118641496 0.14353651
-0.013748096 0.07360347 -0.1631066 0.039644748 -0.046682943 -0.12127346 -0.016780738 0.07386019
-0.047989026 -0.34749117 0.21121737 -0.12917306 -0.07995385 0.033015285 0.27875337 -0.08337625
-0.47334942 0.18094273 0.23745078 -0.104992464 0.060252786 0.09164266 0.059548713 0.12890372
0.308805 0.011435578 0.05303164 -0.06781282 -0.12859033 0.13259867 -0.05003785 0.062248435
-0.118984744 -0.010473029 0.07188989 -0.006663611 0.13021263 0.048170183 0.0883908 -0.17569432
-0.16782658 -0.092948474 -0.1984851 -0.19949496 -0.014084813 -0.22026184 0.111367896 -0.030732315
00000000: a40d 92bd 5018 713e 3eeb b63e cf4f 1fbf
00000010: 529e cebd 4d7e 30be 9442 28bb 5bcf 56be
00000020: 6a3f 453e 48a0 c13e 127c 18bd 8e46 c93e
00000030: c4e0 03bf 4831 e2bd b338 913d 14af 9f3d
00000040: 1a38 423c 4686 3ebe 541e 5abd 05cc 693e
00000050: f460 06bc 3438 63be 4b5f 8cbe 9d03 10be
00000060: 7452 94be 53e3 bb3b dab5 433d f698 5cbd
00000070: 8663 3d3d c630 0d3b c0d3 563d ccd7 1f3d
00000080: 27a3 b83d a6b8 903c 5283 6c3e a9ed debd
00000090: 0a67 1cbd 3b56 df3b cbd1 5b3e f468 53be
000000a0: 64be b73d fe86 2a3e a2a0 e73e 10bc acbd
000000b0: 923f fdbd b777 b3be eafe c6bc 196f a6be
000000c0: d568 78bd 45aa 353e acd0 8d3b e725 a03e
000000d0: d53b e93a eae9 963d 74c5 e03c 5639 adbc
000000e0: 3587 303d d602 a43c ef99 64bd 64c0 3a3e
000000f0: c74f e63d 3772 893b f88b 3fbe 87aa 9c3d
00000100: 183f 443d d8b2 8dbd b2e5 43be 26db 12be
00000110: c88b 8bbd 2531 433d 7422 823d 56eb c23d
00000120: c0e4 a63d 1171 23bd 5e95 943e 803c 9d3d
00000130: b838 4ebd c697 2ebd 366e 1c3e e9d8 b33c
00000140: 6510 093e dafa fe3c b2af 8abe 9eb4 b7bd
00000150: d214 e0bd 7935 8b3c 3aab f53d 80b2 adbd
00000160: c673 9a3d 4459 873d 2e6a eebd 3227 18bd
00000170: 1f34 e03b 5694 ac3b 8528 503d a1cd 10be
00000180: b998 4abe e252 57be ff4b 423e 46cc 59bc
00000190: d9fc 273e 1aab 163c 512b dabd a3a0 7dbc
000001a0: 57bb 88be bbe6 a63e 9484 5abd 9ed6 cc3b
000001b0: 7dd8 8cbd 7c39 143e c855 0bbe 0ad3 153e
000001c0: 7271 463e 416e a9bd 2c02 253e a1c7 013e
000001d0: 4e27 b5bd 8b72 813d 74c0 34be 7bb2 093e
000001e0: b8ca 34be 43e3 e9bd 1671 81bd c1b2 aebe
000001f0: afa7 d2bd f7ef 443e b30b 4e3d b833 7a3e
00000200: b16a 3cbe 5c68 003e 759d c93c 4d07 2fbb
00000210: c2ad 41be 6fa7 26bd 7a2f 253d 0fff 313d
00000220: e228 82bd 6ff5 5ebe fb36 2f3e 34b5 cb3d
00000230: bad8 22be a13c f83d ade5 2b3e 30a0 c4bd
00000240: e528 95be b574 143e c1b2 6c3e 8ff3 84bc
00000250: 1ef6 af3d 8ebf 283e 8d35 27bd c462 3ebc
00000260: c17a 2e3e 99df 37bd 09ad 093e 10fd 5e3d
00000270: e0c3 99bd 9b1b f0bd 732a 80be 8b1c 823b
00000280: 653b 243d aa14 923e ec7e 1f3f f80f f33d
00000290: 47d5 2e3d c49e 9cbe b14c e0bd 88c2 acbe
000002a0: a1f7 aabd 7455 bb3e ed29 003e b0fc e33e
000002b0: 2d75 c0bd 2aa1 9d3d 760a 833d 6182 313d
000002c0: 2a04 acbd 2def 2fbd fd02 36be f1a6 143d
000002d0: 134f 1ebd 29fe 7cbc bb37 acbe 587b 263e
000002e0: 584b 7dbc 2e35 48bd 892d e3bc e8fd dbbd
000002f0: 9ff5 91bd eb68 733d 5b2e ca3d 3df7 193e
00000300: 1602 5b3e fbd7 2abd e3bc 5b3e 529c 38bd
00000310: 78d1 fa3d d7e2 a3bd 2f9a 803e dd9d 46be
00000320: 7340 153d 9e10 af3d cb21 8ebe 1a71 c1be
00000330: 6c17 16be ccfe a03e 50fa f2bd 3cfb 123e
00000340: b23f 61bc 6bbd 963d 6b05 27be 8862 223d
00000350: 9d36 3fbd 385e f8bd c277 89bc 0344 973d
00000360: 2490 44bd 5dea b1be 5e49 583e f145 04be
00000370: d8be a3bd 093b 073d c3b8 8e3e 2bc1 aabd
00000380: db5a f2be 0d49 393e 4c26 733e 4a06 d7bd
00000390: a0cb 763d 26af bb3d 5ae9 733d 56ff 033e
000003a0: b01b 9e3e 4a5c 3b3c b437 593d 73e1 8abd
000003b0: 2fad 03be f2c7 073e 7df4 4cbd 37f8 7e3d
000003c0: 46ae f3bd 1197 2bbc 023b 933d 6c5a dabb
000003d0: 7656 053e 194e 453d 3c06 b53d 36e9 33be
000003e0: bbda 2bbe c55b bebd ae3f 4bbe 6848 4cbe
000003f0: fdc3 66bc 528c 61be da14 e43d 56c2 fbbc

fc3.bias f4 [40]
0.021496987 -0.02658137 -0.0031214613 0.07460723 0.042617664 0.027484762 0.01100704 0.008151359
-0.0030773145 -0.09809563 0.111115165 0.005408094 0.056075774 -0.046549123 -0.12969884 0.06999668
-0.091300935 -0.043912474 0.10473228 -0.12191653 -0.085753016 -0.0869439 0.21691547 0.06738142
0.17512389 0.0830459 -0.026482327 -0.15640293 -0.07662066 -0.03905059 0.08846838 -0.18918504
-0.012258609 -0.061038017 -0.07602799 0.0051092794 0.076265715 0.13584942 -0.032937128 0.028323036
00000000: 731a b03c 2cc1 d9bc 6e91 4cbb adcb 983d
00000010: dc8f 2e3d b927 e13c df56 343c 478d 053c
00000020: c5ac 49bb 5de6 c8bd 5990 e33d 6136 b13b
00000030: b6af 653d 4baa 3ebd c6cf 04be 6b5a 8f3d
00000040: fcfb babd 91dd 33bd e17d d63d 60af f9bd
00000050: 479f afbd a50f b2bd 171f 5e3e 45ff 893d
00000060: ad53 333e f813 aa3d 77f1 d8bc 1728 20be
00000070: 4beb 9cbd 83f3 1fbd e92e b53d b9b9 41be
00000080: 55d8 48bc 0003 7abd 90b4 9bbd be6b a73b
00000090: 3331 9c3d 1c1c 0b3e 15e9 06bd b605 e83c

fc4.weight f4 [20, 40]
0.21269365 -0.009283888 0.07389373 -0.21937281 0.22843152 -0.21471998 -0.11317471 -0.15998393
0.06915342 0.11181937 -0.23098162 -0.083783485 -0.13745354 -0.014240868 0.017618628 -0.028338369
0.16692384 0.08752848 0.016396813 -0.20103249 0.049293574 -0.09472772 0.06643973 0.1761905
0.29796773 -0.026777301 -0.097952075 -0.11800366 -0.19524759 -0.11921705 0.20300147 0.059751913
0.029184172 -0.22176257 -0.16056123 -0.006112231 0.008892348 0.10028493 -0.053717867 0.02483817
0.08182288 0.11127917 -0.07887177 -0.23215501 0.20436482 -0.12600881 -0.06508949 -0.1280384
-0.12812641 0.0019566664 -0.15831178 -0.024152555 -0.08092775 0.16085517 0.10994574 -0.10497594
-0.022757906 0.32496765 0.21505517 0.06009532 -0.04022509 -0.050344303 0.07948676 0.19475347
0.10511761 0.13301536 -0.19863832 0.043446444 0.044745475 0.11592289 0.015596288 0.029875068
0.05867863 0.00111231 -0.07855748 -0.13378812 0.08184513 0.1300062 0.005668811 0.1006331
-0.20656157 -0.031612564 0.13366328 0.27604163 -0.12816001 0.18293954 0.039569173 0.14503673
0.13371065 0.023899246 0.10620639 -0.03137169 0.20650348 -0.2010523 0.010023136 0.18742172
-0.077910475 -0.16937189 -0.098854676 -0.09250337 0.08983253 0.10980739 0.024132324 0.04419158
-0.06290988 0.13619904 -0.08121511 0.076768756 0.0068271346 0.20532179 0.041353762 0.18159567
0.06937915 0.12086494 0.07848429 0.17229864 -0.11317897 0.11941177 0.13156062 -0.062014375
0.29436535 0.17897403 0.025106845 -0.15494557 0.117365964 -0.23401338 0.02928504 -0.02453242
0.10291542 -0.06719422 -0.2532013 -0.022152884 -0.12533717 0.18410571 -0.030366043 0.13035393
0.04447145 0.11426918 0.015394046 -0.12859258 0.10851544 0.115755856 -0.072280176 -0.01534501
0.17017646 0.23971233 -0.19301212 0.041942257 -0.053730443 0.086069345 0.19004466 -0.020941222
0.10945993 -0.08256305 0.09493563 -0.28358227 0.04294001 -0.09078515 0.02179005 0.16336198
0.3093633 0.14856547 0.06234457 0.073445484 0.14878067 0.08391127 0.10591448 0.011446783
0.08148311 0.13846454 -0.18131433 0.11815372 0.1884684 0.14602403 0.03667631 -0.022162136
-0.051380504 0.13765934 0.017098904 -0.009917764 0.0059998306 0.051714614 -0.08798307 0.09495885
-0.2474892 0.03294078 0.22823206 0.06395251 0.049596764 0.05993749 0.048381858 -0.108950935
0.045712207 0.20284894 0.15163201 0.25661314 -0.058183864 0.055259306 0.15530735 0.18370546
0.29194516 -0.09005062 0.020955795 0.24884579 0.15673804 0.06560822 -0.1280417 0.025030825
0.2001918 0.025305217 -0.23269752 -0.053881127 0.09650914 0.22047982 -0.0808929 0.12760712
0.07901964 0.14870048 -0.014504406 0.0026911139 0.13871598 -0.06782534 -0.2590997 -0.04165079
-0.20898731 0.15364856 0.12987502 0.09739835 0.10921263 0.1569777 0.07727624 -0.013633127
-0.071852 0.16754808 0.04867707 0.13662018 -0.04485703 -0.23064767 -0.13746297 0.17058894
-0.09816641 -0.053764302 0.17095472 0.3189755 -0.101594366 0.02839553 0.12442824 0.14534514
0.16662632 -0.075340904 -0.16224843 0.02437081 0.1498778 -0.19498998 0.13881373 -0.10423715
00000000: 5dcc 593e 731b 18bc 9955 973d 44a3 60be
00000010: f4e9 693e 8edf 5bbe 24c8 e7bd d4d2 23be
00000020: 4fa0 8d3d 8e01 e53d 7286 6cbe ad96 abbd
00000030: 9fc0 0cbe 8852 69bc f154 903c de25 e8bc
00000040: 15ee 2a3e 2242 b33d 9c52 863c 76db 4dbe
00000050: 0fe8 493d 9b00 c2bd 8e11 883d 486b 343e
00000060: 3a8f 983e 125c dbbc 199b c8bd e7ab f1bd
00000070: fcee 47be 1228 f4bd 9edf 4f3e 6cbe 743d
00000080: a513 ef3c ba15 63be 2a6a 24be 1c49 c8bb
00000090: 36b1 113c 2f62 cd3d 4407 5cbd 6b79 cb3c
000000a0: c192 a73d 55e6 e33d 8687 a1bd 0bba 6dbe
000000b0: 0345 513e 7408 01be a34d 85bd 801c 03be
000000c0: 9233 03be 6a3b 003b 7c1c 22be 94db c5bc
000000d0: 73bd a5bd 38b7 243e 3b2b e13d a0fd d6bd
000000e0: ca6e babc 2962 a63e 6c37 5c3e 8326 763d
000000f0: 10c3 24bd d435 4ebd f4c9 a23d 746d 473e
00000100: e747 d73d 2e35 083e d867 4bbe e6f4 313d
00000110: 0847 373d fb68 ed3d 9387 7f3c 8fbc f43c
00000120: 0159 703d eeca 913a bee2 a0bd c1ff 08be
00000130: 6b9e a73d 5820 053e 6fc1 b93b ba18 ce3d
00000140: e084 53be 2d7c 01bd 07df 083e 5455 8d3e
00000150: 613c 03be 8154 3b3e 4913 223d 8284 143e
00000160: 72eb 083e 5ac8 c33c bc82 d93d 9a7f 00bd
00000170: a675 533e a7e0 4dbe 1438 243c 7beb 3f3e
00000180: 878f 9fbd d36f 2dbe 5274 cabd 6872 bdbd
00000190: 1efa b73d b2e2 e03d 27b1 c53c 3b02 353d
000001a0: e5d6 80bd c377 0b3e 1c54 a6bd f038 9d3d
000001b0: 28b6 df3b e03f 523e 9062 293d 37f4 393e
000001c0: a816 8e3d 0a88 f73d 5fbc a03d 0e6f 303e
000001d0: 60ca e7bd 288e f43d d4b7 063e c902 7ebd
000001e0: 0eb7 963e f844 373e dfac cd3c 0daa 1ebe
000001f0: 915d f03d 34a1 6fbe 2ee7 ef3c 37f8 c8bc
00000200: 52c5 d23d 209d 89bd 9aa3 81be f779 b5bc
00000210: 6358 00be 3586 3c3e 35c2 f8bc 807b 053e
00000220: b227 363d f605 ea3d 4f37 7c3c c6ad 03be
00000230: 583d de3d 6811 ed3d a107 94bd a369 7bbc
00000240: bd42 2e3e 2677 753e f8a4 45be a5cb 2b3d
00000250: 7414 5cbd 2045 b03d 119b 423e ed8c abbc
00000260: 872c e03d d116 a9bd 9d6d c23d b231 91be
00000270: dde1 2f3d 91ed b9bd 0c81 b23c 5d48 273e
00000280: de64 9e3e 8c21 183e 055d 7f3d 966a 963d
00000290: f659 183e acd9 ab3d b1e9 d83d 4a8b 3b3c
000002a0: 9ee0 a63d a6c9 0d3e 77aa 39be 94fa f13d
000002b0: dcfd 403e 5387 153e e639 163d 5e8d b5bc
000002c0: 5d74 52bd 92f6 0c3e 0013 8c3c 1e7e 22bc
000002d0: 3a9a c43b b4d2 533d 7830 b4bd c979 c23d
000002e0: cf6d 7dbe e9ec 063d aab5 693e 89f9 823d
000002f0: fa25 4b3d 0381 753d 0e2c 463d ab21 dfbd
00000300: b93c 3b3d a2b7 4f3e 6c45 1b3e cc62 833e
00000310: 3452 6ebd 9557 623d e408 1f3e 491d 3c3e
00000320: d679 953e 766c b8bd 7dab ab3c 6ed1 7e3e
00000330: f07f 203e 9a5d 863d 5d1d 03be 720d cd3c
00000340: 14ff 4c3e e34c cf3c 4248 6ebe 75b2 5cbd
00000350: 96a6 c53d 76c5 613e 2dab a5bd 71ab 023e
00000360: 0dd5 a13d f044 183e e3a3 6dbc 665d 303b
00000370: 900b 0e3e 03e8 8abd b7a8 84be 059a 2abd
00000380: c500 56be 0c56 1d3e f5fd 043e c978 c73d
00000390: dfaa df3d c3be 203e 0143 9e3d 7b5d 5fbc
000003a0: 2427 93bd b991 2b3e 9b61 473d 29e6 0b3e
000003b0: 01bc 37bd e72e 6cbe 18c3 0cbe deae 2e3e
000003c0: 790b c9bd f537 5cbd c10e 2f3e c250 a33e
000003d0: b510 d0bd be9d e83c 3cd4 fe3d 5bd5 143e
000003e0: 17a0 2a3e 554c 9abd 7424 26be 4ba5 c73c
000003f0: 9179 193e 74ab 47be 3025 0e3e 497a d5bd

fc4.bias f4 [20]
0.22273615 0.12295726 -0.16117214 0.053823758 0.06807491 -0.20738113 0.092053205 -0.024629626
0.044128537 0.00440529 -0.05727973 0.062106382 -0.06670756 0.14309976 0.08068556 0.081580706
0.020080253 -0.0050819535 -0.18548638 -0.030145302
00000000: f214 643e 04d1 fb3d 4f0a 25be 4d76 5c3d
00000010: dc6a 8b3d b85b 54be 6486 bc3d 12c4 c9bc
00000020: 20c0 343d 405a 903b 269e 6abd 4363 7e3d
00000030: f99d 88bd be88 123e 793e a53d c913 a73d
00000040: 587f a43c 8486 a6bb 24f0 3dbe 48f3 f6bc
