data/models/models/output/phi_S.pth (torch, 17399 bytes, 8 tensors)

fc1.weight f4 [25, 6]
000000 7b 6a 45 3f 60 94 6a 3f 68 ad 27 bd b3 55 1d be
       0.771156 0.9163265 -0.040936857 -0.15364723
000010 b6 1e b7 bd 8b fe 29 bd 6d 22 00 3f 01 e3 08 3f
       -0.089414045 -0.041502517 0.5005253 0.5347138
000020 6c 46 df 3e 5b b8 8e 3e 6a 49 12 3e ee a5 04 3e
       0.43608415 0.27875027 0.14285818 0.12953922
000030 af 24 76 bf 30 de 04 bf 71 38 b1 3e 31 ea d5 bd
       -0.96149725 -0.5190153 0.34613374 -0.10445059
000040 35 a6 62 bd 91 0e 7a 3d d3 5a 68 3f 0d ee 8f bd
       -0.05533429 0.061049048 0.90763587 -0.070278265
000050 18 c2 b7 3e 7e ff 86 bd d9 0d 9b 3e 0f 80 a4 3d
       0.3589027 -0.065917 0.30284002 0.08032238
000060 7b 9f 83 3e 5d 77 5a 3f 70 04 47 3e 49 6a 8b bd
       0.2570761 0.85338384 0.19435287 -0.06807382
000070 46 89 a4 3d be a5 d6 bd df 70 79 be ee 7e 3b 3c
       0.08033995 -0.104808316 -0.24359463 0.011443837
000080 67 13 ef 3e c5 98 ab 3e a1 8f 30 bd 2f 57 d8 bd
       0.4669449 0.3351499 -0.043105725 -0.10563504
000090 fe 84 4e be 7b e8 a6 be 7c 6b d2 3e 63 e2 cc be
       -0.2016792 -0.32599244 0.4109763 -0.4001647
0000a0 a1 27 87 be 59 70 4c 3e e2 90 9b bf 4b 22 da 3e
       -0.26397422 0.19964732 -1.215359 0.42604288
0000b0 b9 09 e4 bd ee a1 a4 3d d8 fb 76 3d 1f df 0b bd
       -0.11134667 0.08038698 0.06029877 -0.03414833
0000c0 68 c2 f4 be 31 de 5d 3e 4c a4 a7 3e 22 d4 a2 be
       -0.4780457 0.2166679 0.32742536 -0.3180247
0000d0 f0 f9 5c be b3 70 cd bc 91 77 0d bf c0 6e fb bd
       -0.21579719 -0.025078153 -0.5526057 -0.12276983
0000e0 91 85 33 3e af 04 95 3e 3f 7d 6b 3e f4 65 a0 b9
       0.1753142 0.29105136 0.22996996 -0.0003059354
0000f0 c6 98 5f be db 2b 2d bf 99 cb 89 bd cc c2 89 3e
       -0.21835622 -0.67645043 -0.06728286 0.2690643
000100 6d 89 86 3e d6 d1 b0 3e 81 92 47 3e b9 06 22 be
       0.26276723 0.34535092 0.1948948 -0.15822877
000110 e7 b6 fa 3e 6f 24 74 be 80 92 a6 be e8 8c 4e be
       0.48967668 -0.23842023 -0.32533646 -0.20170939
000120 d2 25 0c bf b2 35 21 3f b0 25 dc be f2 ad 1a be
       -0.5474521 0.6297256 -0.42997503 -0.15105417
000130 de 2b 93 bd ba a8 28 3e 07 97 c5 3e aa 03 61 3f
       -0.071861014 0.16470614 0.38591787 0.87896216
000140 85 5c 81 3e 5d 15 dc 3c f5 4d bd bd f4 c1 aa 3d
       0.252659 0.026865656 -0.09243385 0.08337775
000150 a5 aa 16 3f 68 64 65 be bb a3 8a be 9a 3a 16 3f
       0.5885413 -0.22401583 -0.2707804 0.5868317
000160 00 7b c4 3e 8c 45 55 3e 67 fc 05 3f db 01 bb 3e
       0.38375092 0.20827311 0.5233826 0.36524853
000170 91 55 f2 3d df d9 c3 bd d0 4f 0f be af c7 1d bd
       0.11832727 -0.0956304 -0.1399529 -0.03852051
000180 de 44 92 3d 46 67 fd 3e e7 5e 68 be fb cd 3e 3d
       0.071420416 0.49492854 -0.22692452 0.046583157
000190 5c a3 0c 3e 62 75 91 be a2 b7 99 3e d9 42 6c 3e
       0.13734192 -0.28409868 0.30022913 0.23072375
0001a0 d7 a2 10 bf 32 cb bc bd aa 44 bb 3c c3 80 0a 3f
       -0.56498474 -0.09218444 0.02285989 0.54102725
0001b0 45 af bb 3e 04 88 85 bf 26 82 44 bd 27 25 04 3e
       0.36657158 -1.0432134 -0.04797568 0.12904797
0001c0 95 ff c1 bc 85 00 9b be 48 93 97 3f 20 77 3f bf
       -0.023681441 -0.30273834 1.1841822 -0.74791145
0001d0 7c 5a 29 be df 97 0f bd 30 6d 91 bc 3a 3c cb bc
       -0.16538423 -0.035056945 -0.01775226 -0.024808992
0001e0 00 50 f2 bd 98 3e 0f 3f ab 24 a4 3e 83 0f 00 bf
       -0.11831665 0.55954885 0.32059225 -0.5002367
0001f0 4a 6a 79 3e 3e ff 4d 3e 47 4f cf 3e 5d 75 40 bf
       0.24356952 0.20116898 0.4049017 -0.7517908
000200 93 49 a7 3d 14 3a 1a be c6 38 c6 3d 3c 0a 7f 3e
       0.0816833 -0.15061218 0.096787974 0.24906248
000210 49 e2 2c bf 83 53 69 bf db 85 05 be 7c 61 0a be
       -0.67532784 -0.91143054 -0.13039343 -0.1351375
000220 f2 ef 02 3e 41 fc 71 be 32 86 2d bf a2 6c 59 3f
       0.12786844 -0.23631383 -0.6778289 0.84931386
000230 eb 93 15 3c cb db 14 3e 95 c9 a8 3c b6 23 cd 3c
       0.009129505 0.1453697 0.020603934 0.025041442
000240 d4 f0 af be b4 94 a1 be 0e c5 d4 bd ad d5 10 3f
       -0.34363425 -0.31558764 -0.10389148 0.56576043
000250 bf 66 f4 be de 19 9e bd
       -0.4773464 -0.077197775

fc1.bias f4 [25]
000000 78 99 c0 bb 7f 7c f7 3c d7 64 6c bd 84 97 10 3c
       -0.00587767 0.030210732 -0.057713356 0.008825187
000010 ef a3 1f 3e bb 2d 90 3e 1e 47 8a 3e 7d c2 04 3d
       0.1558988 0.2815989 0.27007383 0.03241204
000020 08 a4 05 bc ec de 02 be 46 3e 9c 3e 3f 8e b4 bd
       -0.008156784 -0.1278035 0.3051626 -0.08816194
000030 18 17 9c 3e f5 70 12 3e 95 68 c8 bd b3 df aa 3e
       0.3048637 0.14300902 -0.097855724 0.33373794
000040 73 41 42 3e a1 5f 33 3e 65 d3 30 3e ec cd 6a 3d
       0.1897028 0.17516948 0.1726814 0.05732529
000050 5d 8a 88 be 19 05 4b 3e e6 22 9f 3e 61 a6 42 3e
       -0.26668063 0.19826163 0.31081313 0.19008781
000060 43 22 9d bd
       -0.076725505

fc2.weight f4 [40, 25]
000000 76 6b f4 3d 02 d3 18 3c 1c 82 b1 3b aa a5 33 be
       0.11934559 0.009327652 0.0054171216 -0.17543665
000010 10 ef ca 3d 41 22 a8 3d 7f 9f 00 3c c5 d9 82 bc
       0.09908879 0.082096584 0.007850527 -0.015972981
000020 21 b0 9b 3d 64 69 b1 3d 3c 02 c0 bd d5 3e e8 bd
       0.07601953 0.0866268 -0.09375426 -0.11340109
000030 52 15 36 be 4e 65 a3 3d 6d 1f 88 3d de dd eb bd
       -0.1778157 0.07978307 0.06646619 -0.11516927
000040 7e 7f 56 3d b7 31 11 be e2 cf c2 bd ad 3f 88 bd
       0.05236768 -0.14179121 -0.09512307 -0.0665277
000050 e8 89 40 3d fc 3a 46 b9 6e 5b bc bd b4 2a b4 bd
       0.047006518 -0.00018904725 -0.09197126 -0.087972075
000060 e2 96 14 3e 82 1c 4c 3d 16 07 63 be ed 9e 39 be
       0.14510682 0.049831875 -0.22170672 -0.18127032
000070 42 32 83 bd 2a 5e 04 be 10 70 4b be 86 a9 11 3e
       -0.0640607 -0.12926546 -0.19866967 0.14224824
000080 2b 10 87 be 30 27 32 3e 3e a1 6c bd ac 8a a0 3c
       -0.26379523 0.17397761 -0.05777096 0.019597374
000090 4a 26 88 3b f5 82 01 3e 8e 90 05 3e a5 5b 05 3f
       0.004154955 0.12647612 0.13043424 0.52092963
0000a0 95 aa f5 bd 4f 10 90 3d c1 f2 1d bd 4a ca 02 3e
       -0.119954266 0.070343606 -0.038561586 0.1277248
0000b0 fd 58 9a be 81 1d 34 3e 41 f2 64 3d b5 af 86 bc
       -0.30146018 0.1758938 0.055895094 -0.016441206
0000c0 42 fa 5a be ad c2 f6 3e b3 68 5e 3e d0 6f 27 3d
       -0.21384528 0.481954 0.21719627 0.040878117
0000d0 4a 03 9e 3d cf 1d 20 bd db 7f ae 3e d4 f8 b0 bd
       0.07715471 -0.039090928 0.3408192 -0.0864121
0000e0 2b 04 a5 bd bf 1d 1c 3f 55 b3 21 3e b5 42 b5 bd
       -0.080574356 0.6098289 0.15791066 -0.08850614
0000f0 71 e7 b4 3d dc 0c 4d bd f6 eb b0 3d 8d 1c 2b 3e
       0.088332064 -0.05006109 0.08638756 0.1671011
000100 17 d0 59 bc 36 70 ae bd c1 5d fe 3c 9f ac a4 3d
       -0.013294241 -0.08517496 0.031050565 0.08040737
000110 b2 6b ba be d5 0d cb 3b e4 db 99 3d 9f 1b ae be
       -0.3641029 0.0061967173 0.07512644 -0.34005448
000120 0b e9 4e be 81 0e ae 3e 88 cf 48 3d c2 71 1b bd
       -0.20206086 0.3399544 0.049026042 -0.037950285
000130 d8 4c 4d 3d 14 66 2c be 4c 2f 44 be 14 ee 3f bc
       0.050122112 -0.16835815 -0.19158667 -0.011714477
000140 25 1a 8a bb 8f c1 f6 bd de 7f 0d be 80 3a 42 3d
       -0.0042145425 -0.12048637 -0.13818309 0.04741907
000150 c6 87 d2 3d d5 a9 54 be b0 52 7d 3c 28 0a 22 bd
       0.10279803 -0.20767911 0.015461609 -0.039560467
000160 48 dc 60 3d ed 86 d3 bd a1 20 2e bc 66 ee 84 bd
       0.054897577 -0.103284694 -0.0106278965 -0.064907834
000170 ee bf 47 be 77 cd 43 3d 64 f2 d5 bd 1a 2b 6d bc
       -0.19506809 0.04780337 -0.10446623 -0.014475608
000180 a0 fc 58 3d c9 4c 29 3d c0 f7 2d be f8 99 24 be
       0.052975297 0.041332994 -0.1698904 -0.1607436
000190 14 3e 44 bd 4b 12 45 3d 04 28 a6 3c 19 66 42 bc
       -0.047910765 0.04811315 0.020282753 -0.011865162
0001a0 99 aa f0 bd a8 18 33 3e 82 1b 0f bd 59 61 bd 3e
       -0.11751289 0.17489874 -0.034938343 0.36988333
0001b0 57 a3 0e bc 68 2f ea 3e 79 76 59 3e 6e af 48 3e
       -0.008705935 0.45739293 0.212366 0.19598171
0001c0 76 b4 85 be 1b d5 3f be de b7 9c 3e 71 eb a3 be
       -0.26114243 -0.18733637 0.3060903 -0.32015565
0001d0 ca 57 ad bd dd 11 0c be 34 d1 19 bd 24 cb 56 bd
       -0.0846401 -0.1367869 -0.037553027 -0.052439824
0001e0 c8 45 39 be ac 09 45 bd fd 41 05 3e dc 05 b1 bc
       -0.18093026 -0.048104927 0.13013454 -0.02160924
0001f0 80 a4 21 3e 0b c8 38 be 74 4f 53 3c 39 4f 09 bf
       0.15785408 -0.1804506 0.012897361 -0.5363651
000200 e7 c2 20 be 4c 1b 48 3e 2b 7a 94 3d 04 16 a0 bd
       -0.1569935 0.19541663 0.07249864 -0.07816699
000210 b6 f3 ef be b0 aa c2 bd 02 67 94 bd 5b ea 55 3d
       -0.46865624 -0.09505212 -0.0724621 0.052225452
000220 2c ca 29 3e f3 9b d1 3d 14 6b 3c 3d 3d 22 03 be
       0.16581029 0.10234823 0.046000555 -0.1280603
000230 06 0a 8d 3b b5 e6 45 bc bf 61 22 3e 7b e0 91 3d
       0.0043041734 -0.012078931 0.158576 0.071228944
000240 f7 32 2b be 15 de a1 be 39 e6 02 3e 83 fe 32 3c
       -0.1671866 -0.31614748 0.12783135 0.010924938
000250 0e 46 a9 bd af 75 7e be 23 89 0d be f0 02 68 be
       -0.08265315 -0.2484958 -0.13821845 -0.2265737
000260 8c ff d2 3d 52 a4 fc bd ad 01 49 3e 5c 9d c9 3d
       0.10302648 -0.12336029 0.19629546 0.09844467
000270 5c 0c d6 3d 73 e3 9d bb 65 af 52 3e 9f 06 91 3c
       0.10451576 -0.004818374 0.2057472 0.017703352
000280 cd 8d c5 39 08 36 91 3e 6b ab 05 be fc e1 fd 3d
       0.00037680418 0.28361535 -0.13053672 0.12396619
000290 f7 93 13 be 81 96 92 bd 99 85 13 3d 1b 58 d5 be
       -0.14411913 -0.071576126 0.03601608 -0.41668782
0002a0 cd 84 37 3e 2b 1d be be 9a be 40 3e 1d d3 6a be
       0.17921753 -0.37131628 0.18822709 -0.22932096
0002b0 0b eb 98 3d e0 17 01 be fc af d9 3d 4c a9 2a be
       0.07466706 -0.12606764 0.106292695 -0.16666144
0002c0 3e 65 17 bd 6f 9c 44 3e f7 d8 91 bd 77 9c 35 3e
       -0.036961786 0.192003 -0.07121461 0.17735468
0002d0 98 a2 85 3e c1 ab 0a 3d f5 57 25 3d cc bf 0b 3e
       0.26100612 0.033855204 0.040367085 0.13647383
0002e0 e5 50 51 3e f0 6b aa bd ff 1f 80 be d8 05 ae bd
       0.20441015 -0.08321369 -0.2502441 -0.08497208
0002f0 ea f7 39 3e 63 06 4b be ee be 40 3e fb f2 23 3e
       0.18160978 -0.19826655 0.18822834 0.16010658
000300 9d 23 94 be 06 cb e6 bd 17 9e e7 be f3 1c d9 be
       -0.2893342 -0.112691924 -0.452378 -0.424049
000310 10 04 01 be c0 5b 7b bb 8c f1 4c 3d cc 28 00 be
       -0.12599206 -0.0038354248 0.050035045 -0.12515563
000320 36 d1 a5 bd 4f fe 1e be 67 a8 ef 3d 59 35 17 be
       -0.080965444 -0.15526699 0.11702042 -0.14766444
000330 be 62 63 be 5a 27 fa 3d 66 fa 96 3c 92 a6 a1 3e
       -0.22205636 0.12214537 0.018429946 0.31572396
000340 08 f0 34 be 1d ac 1e 3f aa 23 33 3e da d0 75 3e
       -0.1766969 0.61981374 0.17494074 0.24005452
000350 17 4a 08 be 85 55 0c be 30 d7 a7 be b4 c3 cf bd
       -0.13309513 -0.13704498 -0.32781363 -0.10144749
000360 43 f3 7e be 60 36 f2 be fe f0 9f bd 82 ab 9b 3e
       -0.24897484 -0.4730711 -0.078096375 0.30404288
000370 ff 46 01 3e 01 ab fa 3d e1 36 e4 3d cc 2a ee bd
       0.12624739 0.12239648 0.1114328 -0.116292566
000380 19 d5 f5 bd ba dd fd 3d 8e 25 4f 3d c6 52 b9 bc
       -0.12003536 0.123958066 0.050572924 -0.022622477
000390 d8 d7 ee bc 54 e9 36 be 47 a7 30 bd 2a 5b 9d bd
       -0.029155657 -0.17862445 -0.043128278 -0.07683404
0003a0 9e ee f4 3d 1e 78 d7 bd c8 d2 2e 3e fd e7 1c be
       0.11959575 -0.105209574 0.17072594 -0.15322872
0003b0 ed 33 15 3d dc 4f 63 bd 6b a0 d8 3d 3b 29 d1 bd
       0.036426473 -0.05549608 0.10577472 -0.10212942
0003c0 8f 0f 81 3d bb 01 0d bd d7 aa d1 3d 88 94 8a 3d
       0.06301796 -0.03442548 0.10237663 0.06766611
0003d0 a6 5a 08 be 64 c9 42 bc b7 39 c9 bd 9b 53 0b be
       -0.1331583 -0.011888836 -0.09825461 -0.13606112
0003e0 8c b6 05 be 51 55 ab 3c 62 74 14 be 5d 2b d8 bd
       -0.13057917 0.020914705 -0.14497522 -0.10555146
0003f0 94 cf bb 3d c3 84 42 bd 88 95 20 3e d4 90 14 3e
       0.09170452 -0.047489893 0.15682042 0.14508373

fc2.bias f4 [40]
000000 05 f7 7f be 86 ca db 3d 0d 0a 00 bd dc d1 75 bd
       -0.24996574 0.10731988 -0.031259585 -0.06001459
000010 a4 6a 64 bd 86 f8 da 3c 10 39 a5 3d d1 59 6c 3d
       -0.055765763 0.026729833 0.080675244 0.057702843
000020 4a 61 c0 3d e2 6b e7 bd 5f ed 2f 3e c9 f3 71 3c
       0.093935564 -0.11299874 0.17180394 0.014767596
000030 56 df e9 bd 0d 3b f9 bd ef b4 e6 bd b2 eb cf bd
       -0.11419551 -0.12169466 -0.11264979 -0.10152377
000040 9d 9c e6 3b 46 cb 0c be c6 41 da bd ee 5c 3d be
       0.0070377127 -0.13749418 -0.106570765 -0.18492481
000050 41 0b 67 bd ee 6c 07 be 15 3e 15 be 19 ad 44 be
       -0.056407217 -0.13225147 -0.14574464 -0.19206657
000060 9e ca a9 3d cf 0d 74 bd fa fd 28 3c 04 94 36 bc
       0.08290599 -0.05958348 0.010314459 -0.011143688
000070 0c 18 fe 3d 05 49 17 be bf 49 01 3d 87 40 8b 3d
       0.1240693 -0.14773948 0.03156447 0.06799417
000080 da b2 5e 3d 0d 45 de 3d c7 f5 48 be 8a 46 66 3d
       0.054369785 0.10853014 -0.19625007 0.056219615
000090 25 6f 09 be 00 a5 13 3d d7 32 64 be de 03 b4 3a
       -0.13421305 0.036046028 -0.22285019 0.0013734063

fc3.weight f4 [40, 40]
000000 a8 ce bf 3d b0 12 95 be 67 24 9a 3d a8 9f 54 bd
       0.093655884 -0.2911582 0.075264744 -0.051910073
000010 93 e3 11 be 07 01 83 bc ee cd 02 3d 4e 52 36 bd
       -0.14246969 -0.0159917 0.03193467 -0.044512086
000020 ab 54 17 be 45 d1 00 bc e1 81 ff bd cb 16 8a bc
       -0.14778392 -0.007862394 -0.12475944 -0.016856572
000030 86 81 19 bd 42 b4 d9 bd 1b 7d 11 3e 40 06 7c bc
       -0.03747704 -0.106300846 0.1420788 -0.0153823495
000040 db ca 02 be 8c 46 80 be cd cc 2e 3c 5e 6b af 3c
       -0.12772696 -0.25053823 0.0106689455 0.021413501
000050 65 44 5f 3d 06 13 b2 3d 93 7d 1f 3d a9 ec 4f bd
       0.054508585 0.08695035 0.038938116 -0.050762806
000060 65 fe 5d be 0e f4 19 be 50 9a 39 ba ff 27 a7 3e
       -0.21679075 -0.15034506 -0.00070801843 0.32647702
000070 44 56 f7 3d 84 bd 15 be a4 44 1e be 26 66 50 3b
       0.12077001 -0.14623076 -0.15455872 0.0031799166
000080 0d 71 98 3d 68 6c 82 bd 10 c3 4e bd 8d 22 ba bd
       0.07443438 -0.06368333 -0.050478995 -0.09088621
000090 22 c8 94 bd bb 7c 6a bd 9e 4c cd 3c 20 c5 73 bd
       -0.07264735 -0.05724786 0.025060948 -0.059514165
0000a0 99 a1 ca 3c 31 82 0f bc 20 7b 52 be 08 77 9c bc
       0.024735259 -0.008759067 -0.20554781 -0.019099727
0000b0 56 5a 30 bd e8 e1 0c 3e 5d df 12 3e 76 1e 2c bc
       -0.0430549 0.13758051 0.14343019 -0.010505309
0000c0 81 8a 94 3c c5 b1 b2 bd bd 81 21 3e f7 f3 5c bd
       0.01813245 -0.08725313 0.15772147 -0.0539436
0000d0 f6 c7 0e be 74 4b 2f 3c e3 e3 15 3e 9f 46 5a 3d
       -0.13943467 0.010699142 0.14637713 0.053290006
0000e0 ec 80 7e 3d 6a 61 73 3d db 7b 2a 3e 93 c5 83 bd
       0.06213467 0.059419073 0.1664881 -0.06434169
0000f0 84 ed 0d bd 0a 23 3d bc 58 65 6f bd 75 3e 97 bd
       -0.03465034 -0.0115439985 -0.05844626 -0.073849596
000100 9b c3 bd 3d e0 e0 05 3d c8 2a 06 3e 32 ca 16 3d
       0.092658244 0.03268516 0.13102257 0.036813922
000110 74 b7 8e bd 6c 6f 5e be e3 ae 2b be 3d 4c 53 bd
       -0.06968585 -0.21722192 -0.16765933 -0.05158638
000120 27 8d 5b bd 65 ba b5 3d ea d8 45 3d 76 da 34 be
       -0.05360141 0.088734426 0.04830257 -0.17661461
000130 4b db 82 bc 7d b2 0f 3e db 45 3a 3c 2c 73 8b bc
       -0.015973708 0.14032932 0.011369194 -0.017022692
000140 39 de bb bc bb fd f0 3c b7 41 e5 bd 98 59 1e 3c
       -0.022933112 0.029417863 -0.11194175 0.0096649155
000150 6b 9a 93 bd aa ed 83 3d 3a ab dc 3a c5 02 0b 3e
       -0.07207187 0.06441815 0.0016835697 0.13575275
000160 15 f7 d9 3c 4c f1 80 3c f2 54 f9 3d 41 46 23 be
       0.026607076 0.01574006 0.12174405 -0.15944768
000170 f5 4d 51 be 70 44 d5 3d 8e df b2 bd a4 da 00 bd
       -0.20439894 0.10413444 -0.08734046 -0.031458512
000180 5a 52 22 3e dc 4a f6 bb 7c 72 33 3d 92 b7 9c 3d
       0.15851727 -0.007516248 0.043810353 0.07652201
000190 01 10 45 bc 07 d5 0d bc 4a d8 0d 3d f9 66 43 3d
       -0.012027741 -0.008656747 0.034630097 0.047705624
0001a0 8f d7 a1 3d 3b 88 f5 3d c1 1c 54 3e a8 f1 f6 bd
       0.07902443 0.119888745 0.20714094 -0.12057811
0001b0 95 9b a6 bd e3 30 0c be 38 be b4 bc 98 34 04 be
       -0.08135144 -0.13690524 -0.02206336 -0.12910688
0001c0 78 f0 5c be f9 97 fe 3d f8 ef fb 3c b4 c8 cf bd
       -0.21576107 0.1243133 0.030754074 -0.10145703
0001d0 d7 1b 71 bd e4 6c 9b 3d 62 4c 5c 3c 77 57 ca bc
       -0.05886444 0.075891286 0.013445945 -0.02469991
0001e0 e8 c0 88 bd 42 0a 04 3d 02 42 6a bd a3 c9 88 3c
       -0.06677419 0.032236345 -0.057191856 0.01669771
0001f0 8a 79 4a 3c b4 bf c7 bd cc 0e 24 bb 28 e7 07 3d
       0.012358079 -0.09753361 -0.0025033234 0.033179432
000200 95 66 ee 3a 61 46 2e bc 6e 0c 08 3d 42 ab 13 3d
       0.0018188531 -0.010636897 0.03321498 0.036051996
000210 0c 2d 2d 3d 36 56 83 bd 71 af 79 bd 42 c0 27 3d
       0.04227929 -0.06412928 -0.06095833 0.040954836
000220 ac ef 10 bd da ae 74 bd 8e 38 ac bd f1 3c 78 3d
       -0.03538482 -0.059737064 -0.084092245 0.060604993
000230 67 fd a3 bd 5e e8 1e bd d4 7b 8f bc 80 bd 84 bc
       -0.08007317 -0.03879582 -0.0175151 -0.016203642
000240 2e 86 1d 3d 90 d8 4a bd c3 5d 11 bd 69 a5 85 3c
       0.03845804 -0.049522936 -0.03548981 0.016314225
000250 20 f8 49 3d 82 89 4e 3d d0 a6 4f bd bc 00 92 bd
       0.049308896 0.050424106 -0.050696194 -0.07129046
000260 c2 e3 0a 3d 1b 5c ca bc 6c 75 6c bd 87 a8 79 bc
       0.033908613 -0.024702122 -0.05772917 -0.015237934
000270 08 52 f3 bc 77 87 8e bd 3d 0e bb 3c 2a 9f b7 bd
       -0.029702201 -0.069594316 0.022833938 -0.08965905
000280 8f 75 59 3d 63 95 41 bd 1e 37 90 3b 1a ce b0 bd
       0.05309063 -0.047261607 0.0044011017 -0.08633061
000290 43 ea 95 3c 9a 0c c8 bd 41 3c 23 bc 42 cb 3c 3c
       0.018300181 -0.097680286 -0.009963096 0.01152307
0002a0 e2 63 a3 bd 74 a7 c6 3b 28 09 84 bc 5f f8 51 3d
       -0.079780355 0.0060624424 -0.016117647 0.051262256
0002b0 3c c3 c5 bd 82 e6 85 3d 14 15 0a 3d 4a 0a 4b 3d
       -0.096563786 0.065381065 0.033711508 0.04957036
0002c0 db ea 35 bd 71 db 81 bd bd 36 73 bc 2c ec f0 3c
       -0.04441343 -0.06340683 -0.014844594 0.02940949
0002d0 f6 76 2c bd 82 d9 85 3d 41 8e 81 3d b8 00 9e bd
       -0.042105637 0.06535627 0.06325961 -0.07714981
0002e0 b5 be eb bc ba ec ce bc 8e c4 ae bb ab bd b5 bb
       -0.02877746 -0.025259364 -0.0053334897 -0.005546292
0002f0 63 2d 85 3d 10 4b 89 3d 04 38 83 3c 97 86 9d bd
       0.065027975 0.0670377 0.016017921 -0.076916866
000300 a5 92 36 bd 0a a0 d7 3c 66 e5 ca bc f4 c5 54 bd
       -0.044573445 0.02632143 -0.024767589 -0.051946595
000310 a2 27 f6 3c bf 75 5f bc 15 68 af 3d 0a 87 ae bd
       0.030048195 -0.013638913 0.08564774 -0.085218504
000320 06 b7 e0 bc ee 51 ae 3c 2b b9 fb 3d e1 8c 2e bd
       -0.027431022 0.021279301 0.12291177 -0.04261482
000330 2a af 34 3e 10 3a 49 be c4 5a 03 bd 08 13 f1 3c
       0.17644945 -0.19651055 -0.032068983 0.02942802
000340 77 fe 22 be d7 2a 88 bd 4b 27 82 be 3f 8f 5a 3d
       -0.15917383 -0.06648796 -0.25420603 0.053359266
000350 60 f4 25 3e 8a 56 4f bd f9 5d 42 3c 6e 90 c4 bc
       0.16206503 -0.05061964 0.011863225 -0.02399465
000360 f4 38 a1 bd 31 86 3e 3e b0 76 37 3e 29 b3 f8 bb
       -0.07872191 0.18605877 0.1791637 -0.007589717
000370 84 8e 0f be f4 14 6c bd 66 9a 55 3d f8 1d 11 3d
       -0.14019209 -0.05763717 0.0521492 0.03542897
000380 6f f5 c6 be b0 77 c3 3d 53 38 84 be 42 fe 0d be
       -0.38859126 0.09544313 -0.25824222 -0.13866523
000390 8a 5e 2f 3e b1 e4 2d be 0e 9d 5b be 6c 29 04 3e
       0.17125908 -0.1698177 -0.2144663 0.12906426
0003a0 cd ae 9e 3d ba d9 b3 3d ca f8 0f 3d f1 03 07 be
       0.07748184 0.087817624 0.035149373 -0.13185097
0003b0 62 76 d8 bc db d9 9c be 52 d6 1f 3d 24 1d 66 3d
       -0.026423637 -0.3063496 0.03902275 0.056180134
0003c0 44 a3 cf bb 4f af 67 bd 5a 58 be be e0 d6 d0 3d
       -0.0063366015 -0.05656367 -0.37176782 0.10197234
0003d0 7c 3e de bd 8c 3e f6 3d d7 e9 65 bc 96 df b0 3c
       -0.10851762 0.120236486 -0.014032803 0.02159099
0003e0 e5 f7 01 3d 3d 2b a8 3d f8 16 17 bd 54 93 9e be
       0.03173055 0.08211372 -0.03688714 -0.30971777
0003f0 d9 c7 9a be d7 e5 19 3e e2 44 92 be 0f 29 83 bd
       -0.30230597 0.15029083 -0.28568178 -0.06404316

fc3.bias f4 [40]
000000 45 fe aa bd 68 c3 96 bc 00 11 8e bc a6 38 e9 bd
       -0.08349279 -0.018403724 -0.01734209 -0.11387758
000010 c3 ba 2c be 9d 73 d2 3d 5c 6d 4f 3e 2d 0b a8 bd
       -0.16868119 0.10275958 0.20256561 -0.082052566
000020 4b 48 3f 3e 17 78 00 3e 56 c3 51 bc f2 82 86 3c
       0.18679921 0.1254581 -0.012802919 0.016419861
000030 7f 7b 3b bd a2 29 b9 3d 7b 05 a3 bd fb 04 17 3e
       -0.045772072 0.09041144 -0.0796003 0.14747994
000040 94 63 c7 bc 15 e5 86 bd 30 f4 cd bc 80 d7 33 3e
       -0.024339475 -0.06586663 -0.025140852 0.17562675
000050 0f cc a9 3d 0d 9b 05 be 35 e8 16 be f8 db c0 bd
       0.08290874 -0.13047428 -0.14737017 -0.09416956
000060 4a 13 01 be fd f3 a1 bc c2 b4 24 3e b0 5b 7f 3d
       -0.12605014 -0.019769663 0.16084579 0.0623433
000070 bc ee d7 3d 52 98 ab bd 22 f0 31 3e e9 6a f7 bc
       0.10543582 -0.08378662 0.1737676 -0.030202346
000080 e0 eb 33 3d b5 f5 27 be 46 e6 c5 3d 13 62 17 be
       0.04392612 -0.16402324 0.09663062 -0.14783506
000090 8c c5 70 bd 6d 50 05 be 7c 52 be 3d ad 9e bb 3d
       -0.058782145 -0.13018961 0.092930764 0.091611244

fc4.weight f4 [20, 40]
000000 bc 34 00 3e 1a ce 18 bd 7f d2 f1 bd 38 d0 47 bd
       0.12520117 -0.03730593 -0.11807727 -0.048782557
000010 d7 cf f4 3c e0 8f ad be d0 49 68 be af a4 86 bd
       0.029884262 -0.3389883 -0.22684407 -0.0657438
000020 d7 f2 a3 bd ac 7a 4c 3d aa c9 47 bd 3a ed 8c bd
       -0.080053024 0.049921677 -0.048776306 -0.06881185
000030 1c 3b b3 3d 2d 8e 4a bc e6 53 71 bd 4e 64 09 3e
       0.087515086 -0.012362999 -0.058917902 0.1341717
000040 08 1d df bd fc c0 0f 3e 17 de 6b 3d 03 c2 be 3d
       -0.10894209 0.14038461 0.05758485 0.093143485
000050 d0 da c4 bb 36 df cc 3d d9 8c 88 3d c0 a1 cb 3d
       -0.00600753 0.100035116 0.066674896 0.09942961
000060 3e 7e a3 3e 38 6f 2e be 09 9f 0a be 9c bc 2e be
       0.31932253 -0.17034614 -0.1353723 -0.17064136
000070 be 7c bf 3d c1 cb b8 be 6d 75 8a 3e f6 3a 67 3d
       0.093499646 -0.36092952 0.27042714 0.056452714
000080 73 33 8f bd 1c 75 a7 bd ee c4 0b be 3a 50 92 3d
       -0.06992235 -0.08176634 -0.13649341 0.07144208
000090 00 b8 15 3e 78 e1 39 3d 25 f2 17 bd a6 39 1c be
       0.14620972 0.04538104 -0.03709616 -0.15256366
0000a0 96 2c f2 3d df b0 4e be ce b2 4e bd c6 67 0a 3d
       0.1182491 -0.20184658 -0.05046349 0.033790372
0000b0 f2 2b 31 bd 21 46 8c be db 5f 2f bc 0a f5 5c be
       -0.0432548 -0.27397254 -0.010704006 -0.2157785
0000c0 69 1a 25 3d 23 f4 4e 3d 60 ef 43 be 3a 2c 6a be
       0.04030839 0.050525796 -0.19134283 -0.22868434
0000d0 d5 cb 2a be cc f5 1a bd 6c 6c 02 3d 77 fe 81 bd
       -0.16679318 -0.037832066 0.03184168 -0.063473634
0000e0 af c2 05 be 93 54 4e 3e 7a 3d 13 3e f3 20 72 bd
       -0.13062547 0.2014945 0.1437892 -0.059113454
0000f0 ef 3b e2 3b b4 53 a5 3d 2b 45 ca 3d cd 50 05 be
       0.0069041173 0.08072606 0.09876474 -0.13019104
000100 dc c7 96 3e b1 2f 55 bc cd 26 17 be 30 36 ac 3d
       0.29449356 -0.013011859 -0.14760895 0.08408773
000110 d4 e5 86 bc 3b 67 75 be fe 29 63 3e c1 00 0b 3e
       -0.016467012 -0.2396516 0.22183987 0.13574506
000120 9c 0f f6 bb ef 6f f7 bc ee ac 0c bd 6e fd 59 bd
       -0.007509185 -0.030204741 -0.034344606 -0.053220205
000130 ac 1b bd bd 0e 4d 93 3d 48 6d 63 bd 03 b7 16 3e
       -0.092337936 0.071924314 -0.05552414 0.14718251
000140 54 29 b0 be 4b 09 d9 bd 4b b1 2d be eb 11 24 bd
       -0.3440653 -0.105974756 -0.16962163 -0.04005615
000150 13 5e c1 3c 03 62 d2 3d ed ab 36 bc 6a a4 51 be
       0.023604428 0.102726005 -0.011149389 -0.20472875
000160 d9 79 87 3c 77 ee 38 3c a0 f1 0e 3e 61 b7 94 3e
       0.016537594 0.011287323 0.1395936 0.29046157
000170 ac a7 9b 3e e5 81 b3 bd cf 7d ad 3d 92 75 27 be
       0.3040136 -0.0876501 0.08471262 -0.16353443
000180 b2 1c e5 3e f7 d9 0c bf 19 a4 65 3d af e1 37 be
       0.44748455 -0.5502009 0.0560647 -0.17957185
000190 db 8d dc 3d e8 77 08 3e a0 3a 9e bd aa 3b 85 bd
       0.10769244 0.1332699 -0.077260256 -0.06505521
0001a0 26 23 a7 bd 0b ae 05 3e f2 e4 8e 3c d1 dc c1 3d
       -0.08161001 0.13054673 0.017443154 0.094659455
0001b0 5f fa a4 bc 36 b1 84 3e 52 20 37 3d b0 84 cd 3d
       -0.020138917 0.2591645 0.044708557 0.10035074
0001c0 97 e8 cc 3d ee fc 49 3d 08 6f b2 3d 5d 77 98 bc
       0.100053005 0.04931348 0.08712584 -0.018611604
0001d0 78 c8 b4 3d b9 02 3a 3d b0 df 98 3c 0f 23 5b 3e
       0.08827299 0.045412753 0.01866135 0.21400093
0001e0 0c 18 27 bd d6 7b 80 be 81 60 82 be bc 69 9e bd
       -0.040794417 -0.2509448 -0.25464252 -0.07735011
0001f0 9e a9 62 bd 98 ec 61 bd d5 f0 83 be e7 25 0a be
       -0.05533754 -0.055157274 -0.25769678 -0.13491021
000200 7f cf 82 be b0 a2 20 bd f4 64 7d 3d 07 28 62 be
       -0.25548932 -0.03921765 0.061863855 -0.22085582
000210 20 25 4b 3c e5 04 ad be 8b f4 a0 3c 85 3e 39 be
       0.012398988 -0.33792797 0.019647857 -0.18090256
000220 60 c3 9c 3d 28 c2 58 3e d6 a4 7a 3e 2e 7e ce bd
       0.07654452 0.21167815 0.24476942 -0.100826606
000230 d5 a1 72 be ca bb e0 3d 43 e8 61 be fd 86 8f bd
       -0.23694547 0.10973318 -0.22061257 -0.07008169
000240 66 e9 32 3e c7 6f 0d be 6b 90 81 be f1 ae 19 be
       0.17471847 -0.13812171 -0.25305495 -0.15008141
000250 88 10 8a bd 6b 34 8b be e4 3d 1f 3d 9f 80 7b 3e
       -0.06741434 -0.2718843 0.038877383 0.24560784
000260 ee 4d 65 be 9a 4d 76 bd 8c 2a 21 bd df 89 bd 3d
       -0.22393009 -0.0601326 -0.039347216 0.092548124
000270 6a ba ee bd 9e 85 1a bc 30 f5 83 be c7 b7 50 3d
       -0.116566494 -0.009431271 -0.25773 0.050956514
000280 32 27 b1 3d 84 3f b8 bd cc dd e3 bb 8c 9f a3 3d
       0.08650054 -0.0899649 -0.0069539305 0.079894155
000290 75 db b1 3d e9 1b 0e bc 90 6d 1f 3e 42 9b 50 be
       0.08684436 -0.0086736465 0.15569139 -0.20371726
0002a0 24 b8 8b 3e 43 bd e6 3d cd b6 70 bd cd 1a 0e 3e
       0.27288926 0.112665676 -0.058768082 0.13877411
0002b0 0d 61 98 bd 9f 83 52 3e 64 a8 18 be ee 3f 81 3e
       -0.07440386 0.20558022 -0.14907986 0.25244087
0002c0 a4 0e 1f 3e 5a ea d3 3e bf 33 ae be 66 c9 96 3e
       0.15532929 0.41389734 -0.34023854 0.2945053
0002d0 44 e8 63 3c f3 9e c7 bd fb 40 e9 3b 9a dd 6d 3d
       0.013910357 -0.09747114 0.007118342 0.058072664
0002e0 5b 46 5b 3e a1 f8 9b bd c4 4a 40 3e d2 92 a9 ba
       0.21413557 -0.076157816 0.18778521 -0.0012937433
0002f0 78 26 8b 3e e2 68 8b 3e 64 cb 81 be b5 ff 09 3f
       0.27177787 0.27228457 -0.25350487 0.539058
000300 93 77 c5 bd 0c f7 7f bd 13 8f 63 3e 3a e4 bd bd
       -0.096419476 -0.06249146 0.22222547 -0.092720464
000310 96 21 c7 3d ac be de 3d d3 e5 a2 3e 73 29 20 3e
       0.09723203 0.108762115 0.31815967 0.15640812
000320 c4 bb 85 3e c5 8c dc 3d 14 4b 16 3e 7e ce 40 bd
       0.26119816 0.10769037 0.14677078 -0.047071926
000330 32 a9 85 bd 01 5b 95 bd e5 61 29 3e 63 b5 69 3e
       -0.06526412 -0.07292748 0.1654125 0.228231
000340 80 9c 19 3e 22 0a 49 3e af 1a da bb cb 37 7d 3e
       0.15001106 0.19632772 -0.006656013 0.24728315
000350 d3 44 c1 be 55 ea 76 3e 3d a4 70 bd f8 dc 06 3e
       -0.3774782 0.24112828 -0.05875038 0.1317023
000360 c9 68 1a be 5b 87 f2 3e dd 24 ce bd af f2 06 3e
       -0.15079035 0.47368893 -0.10065625 0.13178514
000370 13 8b 10 3d cc 7b 95 bc a7 f2 80 bd 61 91 80 bc
       0.03528888 -0.018247508 -0.06296282 -0.015694322
000380 f0 45 d0 bc ed a9 03 be 1e 66 13 3e 84 a8 cd 3d
       -0.025423974 -0.1285779 0.14394423 0.100419074
000390 ed 0d 67 3e c6 a1 8a 3e 0c ae 71 be 62 2e 01 3d
       0.22563906 0.27076548 -0.2360155 0.031538375
0003a0 e3 85 9d bd 10 26 3b 3d 53 c0 37 be 9a bf b4 bd
       -0.076915525 0.045690596 -0.1794446 -0.088256076
0003b0 17 99 b8 3d 6f 5e 06 be 35 2d 8c 3e 64 d1 d1 3d
       0.090135746 -0.13121961 0.2737824 0.10245016
0003c0 54 3f 19 be bc 4e 9f bd a5 1b 11 bb ac a2 04 3d
       -0.14965564 -0.07778689 -0.0022141722 0.0323817
0003d0 db 94 d4 3d d8 4a 57 3d f7 e3 82 3e ab da 95 bd
       0.103799544 0.05256161 0.25564548 -0.07317098
0003e0 05 31 5d 3e 61 c6 70 3e de 32 9c bd 7a 9e 81 3e
       0.2160073 0.23513176 -0.0762689 0.2531622
0003f0 98 9a b0 bd 8d e4 8c 3e ed d3 63 3d 7a 82 6c 3e
       -0.086232364 0.2751812 0.05562203 0.23096648

fc4.bias f4 [20]
000000 33 9f ea bd f4 dc 4e 3d 21 1e 2b 3e 0b 81 a4 bd
       -0.11456146 0.050503686 0.16710712 -0.080324255
000010 cf d7 69 3d 63 10 0c be 96 fc 0c 3e 91 a1 1e be
       0.057090577 -0.13678126 0.13768229 -0.1549132
000020 fa f8 0a 3e 8e 16 66 3c a7 d7 10 3d 69 ea af 3d
       0.1357154 0.014043463 0.035361912 0.08589632
000030 8e 7c de bd c7 b7 6a be 16 fc 07 be de 6a 36 3d
       -0.10863601 -0.22921668 -0.13279757 0.04453551
000040 b7 0a b0 bc e6 ee 09 be 4d 7d cf 3d c6 5b 8d bc
       -0.021489484 -0.13470039 0.10131321 -0.017255675
