data/models/models/output/rho_L.pth (torch, 19383 bytes, 7 tensors)

fc1.weight f4 [40, 20]
000000 55 72 0f 3e c8 b5 5d 3e 7a 88 9f be a6 16 97 3d
       0.14008458 0.21651375 -0.3115881 0.07377367
000010 9e 1f 5b be ed bc 50 3e 6b 77 fb bc 42 03 cd bd
       -0.2139878 0.2038457 -0.030696591 -0.10010387
000020 3d ec bd be 5d 89 13 be 4b 06 fe bc d0 e7 65 3d
       -0.37094298 -0.14407869 -0.03100886 0.056129277
000030 80 ff 20 3e d6 63 bd bd fe f1 59 3e 80 a0 83 be
       0.15722466 -0.09247558 0.21283719 -0.2570839
000040 6e 5b dd bd fe a3 b3 3d 0e 71 69 be 01 e0 9c 3d
       -0.108084545 0.087715134 -0.22797033 0.07659913
000050 a7 bb c1 bd 91 52 bd be 65 d2 7c 3e bc 3c c6 3e
       -0.0945962 -0.36977056 0.24689634 0.38718212
000060 4b 08 2f be 1b 00 e8 bd b3 30 b6 bd 61 c9 a3 bc
       -0.17093007 -0.11328145 -0.088960074 -0.019993486
000070 80 ff 03 bf 80 6b f3 3d 93 ef 89 3d f0 00 8d be
       -0.5156174 0.118857384 0.06735148 -0.27539778
000080 d1 5b 30 3e 5d 97 14 be 47 fc 85 be 6b e2 fa bd
       0.17222525 -0.14510866 -0.26169035 -0.12250217
000090 c7 8a 04 3e 67 f9 5e 3f 7e f7 51 3e 2b dd de 3e
       0.12943564 0.8709931 0.20504567 0.43528113
0000a0 08 ed 36 bd 91 30 dd 3d 4c cc 75 3e c1 ab e4 bd
       -0.044659644 0.10800279 0.24003714 -0.11165572
0000b0 c7 6a 3b be 5e ba 0c be ae 4b 21 be 45 7d 33 bd
       -0.18302451 -0.13742968 -0.15751526 -0.04382064
0000c0 aa 10 2e 3d 7b 8e 0c 3e ae f2 43 bd 53 78 11 3e
       0.04249636 0.13726227 -0.04783886 0.14206056
0000d0 63 fe 0d 3d 16 9e 7b be 16 d6 63 3e ef 49 4b bd
       0.03466643 -0.24572024 0.22249636 -0.049631055
0000e0 6d 5a 00 bd 10 ab 67 be 43 3f 64 3e ce 39 83 be
       -0.031336237 -0.22623849 0.22289757 -0.2563004
0000f0 3a e4 8c 3d bb 35 80 bd 7a be 59 be 2e 5b 85 3e
       0.06879468 -0.06260248 -0.21264067 0.26046127
000100 47 cf e4 3d cf 79 b4 3e 33 85 80 be f6 33 99 3c
       0.111723475 0.35249183 -0.25101623 0.018701535
000110 ca a1 2d be 84 6b bb bc ce 70 0d 3e 56 48 52 bd
       -0.16956249 -0.022878416 0.13812563 -0.051338516
000120 14 d7 4f bd 6d 06 a3 3e 3d 13 b9 bd 3b ee f3 bc
       -0.050742224 0.3184084 -0.090368725 -0.029776683
000130 c5 bc 08 be 4b 3a 1c bd cb bc 24 3d b3 4b 69 3e
       -0.1335326 -0.03814153 0.04021911 0.22782783
000140 c5 cd 8a be a4 28 16 be 30 92 ae bd 8f ba ba be
       -0.27110115 -0.1466394 -0.08523977 -0.36470458
000150 b5 c0 96 3e 60 69 88 3e 25 67 87 3e 80 b0 64 be
       0.294439 0.26642895 0.2644588 -0.22332954
000160 2b 80 3a 3e e4 30 85 3d e0 cb 73 be 6e 2e c0 3d
       0.18212955 0.06503466 -0.23808241 0.09383856
000170 0a 46 9d 3d d4 f3 01 3e 20 ce be bd 5e a2 18 3d
       0.076793745 0.1269067 -0.09316659 0.03726422
000180 6b 7c d0 bd 1e fd 4d be d6 e1 eb bb 81 f8 ab be
       -0.10179981 -0.20116088 -0.0071985526 -0.3358803
000190 e4 89 88 bd d0 60 94 bd 51 d8 13 3e 28 e3 78 3c
       -0.066669255 -0.07245028 0.14437987 0.015190877
0001a0 51 bd 89 be ec ed eb bb f2 71 57 be 10 5a dc 3c
       -0.2690225 -0.0071999934 -0.2103956 0.026898414
0001b0 22 9c b5 bc 6e 1e 64 be 1f 50 cc bd 2b 6a 43 be
       -0.022169176 -0.22277233 -0.099762194 -0.19083469
0001c0 0c e0 ce 3d c4 13 f8 bc 54 4e 7a 3d 6a c9 2d 3e
       0.10101327 -0.030282862 0.061109856 0.16971365
0001d0 be 3d 2c bd 1d 2c 10 3e ef 53 34 be d0 8f af 3d
       -0.04205107 0.14079328 -0.17610143 0.08572352
0001e0 9d a8 32 be 45 77 40 bd eb ac 08 be f2 ed 01 3c
       -0.17447133 -0.046988744 -0.13347213 0.007930266
0001f0 fb 92 26 3e 67 09 60 bd 55 0b 10 be 49 21 1c 3d
       0.16267006 -0.054696467 -0.14066823 0.03811768
000200 6d c5 26 3e 7e a9 73 bd 17 98 18 3e 04 a1 c9 bc
       0.1628625 -0.059487812 0.14901768 -0.024612911
000210 e5 ca e3 3c 72 e2 f8 bd ff d2 b2 bc fd d4 ba bd
       0.027806709 -0.12152566 -0.021829126 -0.091226555
000220 27 6a c6 bd 76 01 d0 3d 95 87 9d bd 8e c5 11 be
       -0.09688216 0.10156529 -0.07691876 -0.14235517
000230 62 fe 4b bd ba e4 1e 3e 81 c2 c7 3e 36 c5 a2 3e
       -0.049803145 0.1551694 0.39015582 0.31791085
000240 af be 03 3e cb 7f 45 3b b0 08 81 3e 1c 7f ab 3b
       0.12865709 0.0030135985 0.2520194 0.0052336585
000250 fe b0 29 3d 35 c9 12 bf 19 2f b1 be 73 f2 16 be
       0.04142856 -0.5733827 -0.34606245 -0.14740925
000260 e9 8e 2c be e6 c1 b4 be f3 47 47 be 5a a2 b1 3c
       -0.16851391 -0.35304183 -0.1946104 0.02168386
000270 9c 59 bf be 66 1e a2 be 25 51 64 bd f9 c1 fc 3e
       -0.37373054 -0.31663817 -0.055741448 0.4936674
000280 05 e9 a3 3e 1f 43 93 3c d8 bd ae be b9 33 d1 3d
       0.32013717 0.017976342 -0.34129214 0.102149434
000290 49 8f ef bd 9f 77 1f be 30 fc 8f 3b 54 c8 70 3e
       -0.11697251 -0.15572976 0.0043940768 0.23513919
0002a0 4f 24 dd 3d 74 9a f3 bb 15 17 93 3e d5 55 03 be
       0.10797941 -0.0074341837 0.28728548 -0.12825711
0002b0 3a a6 89 bd 56 6c 75 3e 39 89 79 3e 6b 71 08 be
       -0.06721158 0.23967108 0.24368753 -0.13324516
0002c0 5e 87 10 3e 3b 2f 98 3c 34 e9 f8 bd 06 df a0 3b
       0.14114138 0.018577209 -0.12153855 0.004909399
0002d0 d3 6b df bd 33 5d 77 be 80 06 c3 3c 09 f8 9b be
       -0.10909238 -0.24156646 0.02380681 -0.30462673
0002e0 69 39 05 bc ab a3 a9 bd 6b f8 26 3e b4 a5 82 be
       -0.008131363 -0.0828317 0.16305701 -0.25517046
0002f0 0a 94 f6 3c 5c 5d 29 3d 96 76 ea 3b f6 de 9e 3e
       0.030099887 0.0413488 0.00715525 0.3102948
000300 42 17 14 3e ae 2d d3 3d 44 e8 9e 3d 43 f4 28 3e
       0.14461997 0.10311447 0.07759145 0.16499428
000310 5e 7e 40 bd 63 da e0 3d 3e ad a3 3d 94 5b 9d be
       -0.046995513 0.10979154 0.07992028 -0.3073393
000320 85 f3 93 3e ad ee b1 bd 5a d0 a6 bd 09 48 a6 3e
       0.28896728 -0.08688102 -0.08145209 0.32476833
000330 fc a8 2d 3d b8 d2 6a 3e 53 f9 17 3e d1 3a 73 3e
       0.042397484 0.22931945 0.14841203 0.23752905
000340 f3 a4 59 be 30 50 00 be 8a 6c 59 3d f8 17 92 bc
       -0.2125433 -0.12530589 0.053082027 -0.017833695
000350 d7 91 95 3c d3 4f 3e 3e b1 06 10 3c 13 2e fd bd
       0.018258018 0.18585138 0.008790658 -0.123623036
000360 84 19 78 bd c2 0f ef bd 9a 3f 99 be 43 ec 95 3e
       -0.06057121 -0.116729274 -0.29931337 0.29281816
000370 19 1a 79 3d 22 b0 82 3e 9e e0 9a 3d 65 af 99 3e
       0.060815904 0.25525004 0.075623736 0.30016628
000380 d1 e6 b5 bd 56 95 97 be 5d 41 dd bc 24 ba 90 3e
       -0.08881915 -0.29606122 -0.027008707 0.28267014
000390 e3 92 33 3d b5 fe ed 3c 07 ec b5 3e a2 7e da 3d
       0.043841254 0.029052118 0.35531637 0.106686845
0003a0 d2 24 07 be e8 27 69 be 18 70 02 3e 1f 40 4f bd
       -0.1319764 -0.2276913 0.12738073 -0.05059826
0003b0 bf e7 a2 bd 8e 59 a9 be d9 1c 83 be 24 31 a3 3e
       -0.07954358 -0.33076137 -0.25607947 0.3187343
0003c0 c4 e9 7a 3e 41 41 11 3e 9b ec 5d be b4 66 1f 3f
       0.24503237 0.14185049 -0.21672289 0.6226609
0003d0 dc d9 d1 3d c5 02 bb 3e e5 78 88 be 22 a3 99 3e
       0.102466315 0.3652555 -0.26654735 0.30007273
0003e0 f7 da 29 be 51 0a 8b be 3d 40 ba be 51 14 3d 3d
       -0.16587435 -0.27156308 -0.36377135 0.046161953
0003f0 53 d8 23 be 6c 1b f7 3e 84 d8 e6 bd 5d 2c a4 be
       -0.1600049 0.4826311 -0.11271766 -0.32065096

fc1.bias f4 [40]
000000 8d c2 56 3e 7a a2 db bd 6d 50 6d 3c 6c c8 d3 3d
       0.20972653 -0.10724349 0.014484507 0.10340962
000010 ba 74 21 3d b0 ff 13 be 5a 3d 34 be 27 89 54 be
       0.03941796 -0.14453006 -0.17601529 -0.20755444
000020 29 bc 90 3e ab a1 44 3e 3f 1f 21 3e ee 0d 4a 3e
       0.28268555 0.19202296 0.15734576 0.19731876
000030 dd e6 29 bd 3e ee 38 3e 8a 72 05 3e 7f ed 3a bd
       -0.041479934 0.18059632 0.13031974 -0.04563665
000040 71 fe c8 3c 1c c4 4c be db 66 dd 3d af 87 f8 bd
       0.02453539 -0.19996685 0.10810634 -0.121352546
000050 52 06 15 3e 5c d3 78 3e 95 ae 48 be 27 2f be bd
       0.14553192 0.24299377 -0.19597848 -0.09286337
000060 9e 54 a1 3e 21 c5 17 3e f8 9c 45 be ba cf 18 3e
       0.3150987 0.14821292 -0.1929816 0.14922991
000070 b0 08 11 3e 9d 87 2c be 46 fe 9b 3e a3 b1 76 3e
       0.1416347 -0.16848607 0.30467433 0.240912
000080 31 46 6f 3e f3 4d e0 bd 35 b5 80 3d 61 cd 8f 3c
       0.2336662 -0.10952368 0.062845625 0.017553987
000090 48 bb 6d 3e fe 9d 86 3c 00 5e 3a bd b8 37 a6 3e
       0.23215973 0.016432758 -0.0454998 0.32464385

fc2.weight f4 [40, 40]
000000 cb f6 32 bd af ae a4 be 88 20 d6 3d 14 9f 7e 3e
       -0.04369239 -0.32164523 0.104554236 0.24865371
000010 8b 47 d1 bd 7a 0e a3 3d 94 73 86 bd 0c df a4 3e
       -0.10218724 0.079617456 -0.065650135 0.3220142
000020 e2 fc f8 3c b1 34 ef bb 77 fb f5 3d db 3f aa 3d
       0.030394021 -0.0072999825 0.12010854 0.08312961
000030 64 14 c7 3e 78 ec af 3d 7e 64 f4 bc 25 66 e4 bd
       0.38882744 0.08590025 -0.029833075 -0.11152295
000040 f7 9f 30 3e ce 75 e3 bc 9a 98 f9 3d be aa f3 3d
       0.17248522 -0.027766135 0.121873096 0.11897801
000050 4d 22 23 3e 85 3f e4 3b f9 3c d6 3e 5d c8 4d 3e
       0.15931053 0.00696558 0.41843393 0.20095964
000060 9e 35 40 3d 33 59 41 3e f3 92 17 3e 47 6f 39 3e
       0.046926133 0.18881683 0.1480215 0.18108855
000070 63 af ee 3d b5 99 41 3b f2 56 2a bc 4f 24 35 3e
       0.11654546 0.002954108 -0.010396706 0.17689632
000080 2c dd 91 3b a5 cf a8 bd b8 52 0e 3d db 8a a6 ba
       0.0044514146 -0.0824273 0.034746855 -0.0012706177
000090 e2 e8 a1 3b da c5 da bc 59 04 19 3d f3 97 01 3d
       0.004941092 -0.026705671 0.037357662 0.03163905
0000a0 b0 9f ad 3c 9f 61 ba be de 52 93 3d 10 69 56 3d
       0.021194309 -0.36402604 0.0719354 0.05234629
0000b0 15 71 c1 bd c8 47 4e 3c 77 da fe bc 13 2f 8e 3e
       -0.09445397 0.012590356 -0.031110032 0.2777029
0000c0 01 e2 30 3e 9d ee 2d bb a3 36 2f bc c4 e0 2f 3e
       0.17273714 -0.002653993 -0.010694179 0.17175585
0000d0 f8 2e 63 3e f8 e6 a9 3c 57 26 85 3d c8 06 83 3c
       0.22185886 0.020740017 0.06501453 0.015994444
0000e0 96 97 ba bc 18 46 88 bd ec af 4a 3c 22 ba 89 bd
       -0.02277736 -0.06653994 0.012371045 -0.06724955
0000f0 6e cf 63 3d fa 14 2c 3d 49 aa cc 3e 78 ac 4e 3d
       0.055617742 0.042012192 0.39973667 0.050457448
000100 fa f0 7b bb a4 8a 9f 3d 8a 4b 49 3b 9d db e9 3d
       -0.0038443194 0.077901155 0.003071519 0.11418841
000110 c3 d0 ad 3c 41 40 f1 bd af 11 b9 3d 58 9d 96 3d
       0.02121771 -0.117798336 0.09036576 0.0735423
000120 bd 77 2c 3d c6 43 26 be ea 79 d3 bd 7a 98 4b 3d
       0.04210638 -0.16236791 -0.10325988 0.04970596
000130 15 b2 24 3c b0 8b 83 bd 88 c4 01 bd 3b 24 29 3e
       0.010052224 -0.06423128 -0.031681567 0.16517727
000140 b5 5c 9d bd aa 36 98 3e be 20 02 bd 09 0c fe 3a
       -0.07683698 0.29729205 -0.031769507 0.0019382249
000150 ba a9 58 3e 52 2f d8 3d df 8f 1b bd 98 50 9c bd
       0.21158496 0.10555901 -0.037979003 -0.076325595
000160 8a d9 ce bd fb 7e c0 ba de 40 d1 bc 17 9d 05 be
       -0.10100086 -0.0014686281 -0.025543626 -0.13048206
000170 7c 81 28 be 78 c7 24 3e 76 07 f0 3c d4 2e fb 3d
       -0.16455644 0.16091716 0.029300433 0.12264791
000180 ef 24 0e be b0 52 38 3e 08 d8 9a bb d9 68 a6 3d
       -0.13881277 0.18000293 -0.00472546 0.08125467
000190 41 df a9 3d f5 56 e0 3d 2f f0 77 be 82 60 21 3c
       0.082945354 0.10954086 -0.24212717 0.009849669
0001a0 19 4a 1d 3c af 71 15 be e2 34 c9 3d 3d 48 dd bd
       0.009600186 -0.14594148 0.0982454 -0.10804794
0001b0 b5 a3 37 3e 8c 7d 3d 3d 01 c5 37 be 9d 14 28 3d
       0.17933543 0.04626231 -0.17946245 0.041035283
0001c0 04 c2 1a 3e c9 95 d4 3d 19 26 6c bc 96 f8 e2 3c
       0.15113074 0.10380132 -0.01441338 0.027706426
0001d0 0b dc 11 be 0d 49 46 3e 6e 84 02 3e 1f 0d 4a bd
       -0.14244096 0.19363804 0.1274583 -0.04932892
0001e0 90 54 6b bd 6c 58 4c 3d 01 aa 90 3d b4 78 a2 3d
       -0.057453692 0.049889013 0.07063676 0.079331785
0001f0 1a 09 6d bd 36 fe b0 3d d5 b6 7d 3d f4 39 fa 3c
       -0.057870008 0.08642237 0.06194194 0.030545212
000200 6b 75 a1 bd 9c cf 8b bd 9e de ba bd 1e 79 b4 bb
       -0.07883724 -0.06826708 -0.09124492 -0.0055076024
000210 61 aa 9f 3c 7e 19 c1 bd a4 87 de bd 05 09 e2 3b
       0.019490423 -0.094286904 -0.10865715 0.006898048
000220 d4 32 bf 3d 68 7f 71 3d d4 fc 3c bd 26 a5 e1 bd
       0.093358666 0.058959395 -0.046139553 -0.11017828
000230 f9 eb 15 bd 40 13 81 3d e6 69 8a bd 12 4e eb 3d
       -0.036601994 0.063025 -0.0675848 0.114895
000240 4e 18 8a bd 6c ec b6 3d 1e 15 8e 3c 8e 59 95 bd
       -0.06742917 0.08931813 0.017344054 -0.07292472
000250 19 1d 40 3d 8b c6 0b 3d b3 3a c3 bd 13 fd c7 bc
       0.04690275 0.034124892 -0.0953268 -0.024412667
000260 22 f8 f7 bb d2 d2 3f bd a6 37 bb 3d 52 a1 82 bd
       -0.0075674215 -0.046831913 0.091414735 -0.06378426
000270 fa b7 bf bd 8a 04 e2 bc a7 c1 3d 3c 64 ae 91 3d
       -0.093612626 -0.027590055 0.011581815 0.071133405
000280 63 39 10 be 84 9d 37 3d 8c f0 f4 3d ba 23 91 3c
       -0.14084391 0.044827953 0.11959943 0.017717231
000290 c6 d0 32 3e fc 86 17 3e 9a 1f 77 3d b4 ba 63 be
       0.17462453 0.14797586 0.060332872 -0.2223919
0002a0 71 7f 6d be 59 cd 13 3e 34 f9 d4 bd 37 a8 21 3c
       -0.23193146 0.14433803 -0.10399094 0.009866766
0002b0 e7 5a 03 3e 3f f2 27 3e 34 ff f4 3c e7 c2 5e bd
       0.12827645 0.16401003 0.029906847 -0.054385092
0002c0 e8 43 11 be 19 69 fa 3c ef 85 aa bd 50 4f 12 3e
       -0.1418606 0.030567693 -0.08326327 0.14288068
0002d0 57 d8 34 be 51 e0 4a 3e fa be 0e be 53 e7 d2 bd
       -0.17660652 0.19812132 -0.1394004 -0.10298028
0002e0 8e c3 c2 bc 74 e4 ed bd 68 ec 39 3e 76 b8 80 be
       -0.023774888 -0.116158396 0.18156588 -0.25140733
0002f0 7e ee 08 3e fd ff 14 3e fb eb 07 be 17 60 35 3e
       0.13372228 0.14550777 -0.13273613 0.17712437
000300 02 96 ff 3d 10 f4 81 3e 9b 28 e9 ba 4b 14 69 3c
       0.124797836 0.25381517 -0.0017788591 0.01422603
000310 15 f6 fd bd b2 70 b9 3d 3a cd 51 3d 80 aa 6e be
       -0.12400452 0.09054698 0.05122111 -0.23307228
000320 11 8f 59 3e 7f d1 c8 be 05 15 15 3e 4c 15 56 3c
       0.21245982 -0.39222333 0.145588 0.013066601
000330 80 94 28 bd c6 9f e7 3c 70 b3 73 3d 77 62 8c 3e
       -0.041157246 0.028274428 0.059497297 0.27418873
000340 78 c6 7c 3d 1f bf ec bd 74 10 04 3c 3a 1b 36 3e
       0.061712712 -0.11559891 0.008060563 0.17783824
000350 29 de 81 3e 07 25 23 3d 20 0d b8 3c 48 24 85 bd
       0.25364807 0.039830234 0.022467196 -0.06501061
000360 52 bf 26 3e dd b8 43 3d 8a ec 14 3e ff 66 55 3d
       0.1628392 0.04778372 0.14543357 0.052100178
000370 1f af 13 3e b6 e6 ce 3d 45 49 b4 3e c1 1c e0 3d
       0.14422272 0.10102598 0.3521215 0.10942984
000380 94 07 8f 3d 3f 73 25 3e f0 92 98 bd 07 b8 0f 3d
       0.06983867 0.16157244 -0.07449901 0.03508761
000390 98 82 c9 3d e9 16 43 bd 45 14 9e 3d d3 e2 13 bd
       0.09839362 -0.04762927 0.0771871 -0.03610499
0003a0 3c 21 61 bd 42 53 e5 bd 88 0b 9e 3c 6b 80 e8 3d
       -0.054963335 -0.11197521 0.019292608 0.11352619
0003b0 f0 9e f2 3d a4 67 ac bd 72 49 74 3b 67 a2 86 3d
       0.11846721 -0.084182054 0.0037275222 0.065739445
0003c0 f5 d7 bf 3d dd 29 a8 be 95 48 c8 3c ff a6 4d 3d
       0.093673624 -0.3284444 0.024448672 0.050208088
0003d0 67 9f 15 be 9e 1b e9 3c 88 11 a3 bd c8 61 34 3e
       -0.14611588 0.028455552 -0.07962328 0.17615426
0003e0 d8 32 2a 3e e2 9b 86 3b 20 75 fe 3d 8a 06 63 3e
       0.16620958 0.004107938 0.124246836 0.22170463
0003f0 13 fb 9f 3e 16 4c bd 3d 9f 24 de 3d 1c a4 f5 bb
       0.31246242 0.09243028 0.10846829 -0.00749637

fc2.bias f4 [40]
000000 89 f8 54 bc 5c 94 a4 3d c2 65 56 3e 5c ad c6 bd
       -0.0129987085 0.0803611 0.20937255 -0.097010344
000010 ad 5c 62 bc b8 44 0a bd c7 e6 48 3d 78 aa 04 3e
       -0.013816041 -0.03375694 0.04904821 0.12955654
000020 f3 c8 46 3c 41 92 4f be ab dc 2b bd be 86 e5 bd
       0.012132871 -0.20270635 -0.041958492 -0.11207341
000030 a5 0e 0f 3e 0b b7 16 be c1 d9 36 3a 6e fd f6 3d
       0.1397043 -0.14718263 0.0006975197 0.120600566
000040 8a 3c b6 3d 94 7a 5b 3e 71 32 7d 3e 36 9f 3e bc
       0.08898266 0.21433479 0.24726273 -0.0116346385
000050 59 96 7b bc 36 7c ee 3d 50 bc ac bb fc 0a 38 3e
       -0.01535567 0.11644785 -0.005271472 0.1797294
000060 a5 78 40 3e e1 ab 86 3b 92 67 b8 3d ab 8f cb 3d
       0.18796022 0.004109845 0.090041295 0.09939512
000070 5d 36 fc 3c 03 bc 7e bd 2e 1c 9b 3d 71 2f 8f bd
       0.030787641 -0.06219102 0.07573734 -0.069914706
000080 7b c3 b0 3d 7b 83 6a 3d 8b c3 5d bd 57 f1 ae bc
       0.08631035 0.057254296 -0.054141562 -0.021355314
000090 3d cc 2b 3e 3b 06 42 3e e6 32 00 be a7 5b 54 3e
       0.1677713 0.18947689 -0.12519416 0.20738088

fc3.weight f4 [40, 40]
000000 45 f3 67 3d 4d 87 2f be 54 57 aa 3d 40 c8 12 3c
       0.056628484 -0.17141457 0.08317438 0.008958876
000010 d6 ea 61 3e 76 93 28 3c 51 52 e0 bd 69 d1 1b 3e
       0.22062239 0.010289064 -0.109532006 0.15216602
000020 1c 37 2a bc d8 05 0f be ec 3e 14 3d 36 76 63 3c
       -0.010389116 -0.13967073 0.03619282 0.013883164
000030 36 1f ae bc f0 64 5c bd f1 20 7b 3d a4 4e 0e 3e
       -0.021255117 -0.0538072 0.061310712 0.13897187
000040 9a 2d 13 3c 90 f6 01 3e 84 00 2c 3d 2a 86 43 3e
       0.00898304 0.12691712 0.04199268 0.19094148
000050 26 71 5d 3e 0d ed a3 3d 86 ba 78 bd 18 c9 55 bd
       0.21625194 0.08004198 -0.060724758 -0.05219373
000060 c7 73 47 bc 76 cd a0 bd 5f 75 f2 3d cf 58 36 3e
       -0.0121736 -0.078516886 0.11838793 0.17807315
000070 78 24 57 3e f0 75 a1 3d db 25 95 3e 72 9d a0 3d
       0.21010005 0.07883823 0.29130444 0.0784253
000080 73 8b 9c 3d 6d 14 ce bd 8c 56 3e 3d a1 c3 0b 3e
       0.07643785 -0.1006249 0.046469256 0.13648845
000090 04 6d 29 3e a6 c9 28 3e ac 66 1c be d7 b8 be bd
       0.16545492 0.16483173 -0.15273541 -0.09312599
0000a0 22 5e eb 3c 32 bf a5 bd 29 ae 1f bd be 7e 1c bc
       0.02873141 -0.08093108 -0.03898445 -0.009551702
0000b0 91 b3 58 3d f8 52 40 bd 56 4e 96 3b 00 4e d7 bd
       0.052905623 -0.046954125 0.004586975 -0.10512924
0000c0 b9 4d fe 3d a0 89 64 bd cc 4e d2 bd c7 69 17 bc
       0.12417168 -0.055795312 -0.102689356 -0.009241528
0000d0 28 0a af 3d a0 aa 97 3d 38 9c cb 3c 92 5b cc 3d
       0.08546859 0.07405591 0.024854764 0.09978403
0000e0 4e 46 cd 3d 80 76 c4 bc bc fa 75 3c 40 f2 75 bd
       0.10023175 -0.023982286 0.015013393 -0.06004548
0000f0 ad 59 ef bd 7d de 0f be 3a 73 72 bc 95 63 9b bd
       -0.11687026 -0.14049716 -0.01479798 -0.07587353
000100 2c 03 44 3d ad db cd 3c 82 10 0c be 1f f8 b2 3d
       0.047854587 0.025129164 -0.13678172 0.087387316
000110 f6 86 eb 3d 30 c3 c2 3d cc ac d5 3d 1b 79 8e 3d
       0.11500351 0.09509885 0.10433349 0.06956693
000120 22 ef e8 3d 84 0e 68 3d 0a a8 e2 3d a2 64 f1 bc
       0.11373736 0.05665447 0.11067207 -0.02946693
000130 ea 54 4b 3d 3c 00 c3 bc 81 1e d8 38 ba 38 eb bd
       0.049641527 -0.023803823 0.000103053644 -0.11485429
000140 9d 33 19 3e 83 d2 76 3c 21 8b e5 3d ea 45 d5 3d
       0.14961095 0.015064838 0.11208177 0.10413726
000150 9c 7d 8f bb f3 3b ee bd f0 75 52 be e4 10 58 3c
       -0.0043789875 -0.11632528 -0.20552802 0.013187621
000160 39 cb 5e 3d 0a b2 1c 3e 23 de 17 3e 6a e4 23 bd
       0.054393027 0.15302292 0.14830832 -0.040012754
000170 e5 a9 4e 3e 44 a1 01 be 1a a0 71 bd 02 66 9b 3d
       0.20181997 -0.12659174 -0.058990575 0.07587816
000180 40 b8 fa bd a0 ce a7 3d 3a d0 ec 3d 52 d9 0b 3e
       -0.12242174 0.081937075 0.115631536 0.1365712
000190 87 94 e4 3c ee a8 2f 3d 64 48 73 bd 18 90 98 3c
       0.027902855 0.042885713 -0.05939521 0.018623397
0001a0 44 56 92 be 88 20 ef bc bc b4 30 3c 24 f3 9f 3d
       -0.2858144 -0.029190317 0.010785278 0.07810047
0001b0 8f 7f 8e 3d f3 5d 23 3d 53 8f 69 be 5d a4 44 3e
       0.069579236 0.03988452 -0.2280858 0.19203325
0001c0 f6 88 b2 3c d3 9c 98 3c f5 23 f5 3d ed 2b 42 3b
       0.021793824 0.018629467 0.11969749 0.0029628233
0001d0 27 ab a4 3d 8d e8 19 3e 6a 95 13 be 6d 52 53 be
       0.08040457 0.15030117 -0.14412466 -0.20636912
0001e0 7e a4 b8 bd d0 a0 fe bc 93 7a b4 3c 44 05 ed 3c
       -0.090157494 -0.03108254 0.022031104 0.028933175
0001f0 93 97 da 3d e2 b9 40 3c 1c f0 b1 ba b4 a1 7d 3d
       0.10673442 0.011763068 -0.0013575586 0.06192179
000200 e9 18 3c 3e 29 6d 85 bd 18 06 0d 3e 7c 3e 76 bc
       0.18368877 -0.06514961 0.13771856 -0.015029546
000210 3b b7 33 3e ee e7 d3 bd 54 82 1d bc 95 15 a6 3d
       0.17550366 -0.103469715 -0.009613592 0.08109585
000220 73 cc 94 bd 54 17 b2 3c 9b a8 88 3c b7 35 7e 3d
       -0.07265558 0.02173964 0.01668196 0.062062945
000230 84 a0 f9 3d b8 ce 2f 3e 4a a7 7c 3d 6c eb 2f be
       0.12188819 0.171687 0.061682977 -0.1717965
000240 50 cf 2d be a0 1b b9 3b 1d 32 35 bd 66 d7 8f 3d
       -0.16973615 0.005649045 -0.044237245 0.07023506
000250 57 ad 13 3e c1 1d 43 3d e4 b4 99 bd 17 86 fd 3d
       0.14421593 0.047635797 -0.07505205 0.12379091
000260 0c 4d bc 3d 98 77 ec bd 03 2b 92 bd 70 1e 52 3c
       0.09194383 -0.11546248 -0.0713711 0.01282464
000270 f5 f8 93 3d f6 df 3f 3e a4 75 92 3d 89 cc 19 be
       0.07225219 0.18737778 0.071513444 -0.1501943
000280 3e 5b 96 3c 09 d0 55 3e fa f0 3a be e2 4a ec bd
       0.018354055 0.2088014 -0.18255988 -0.1153772
000290 8f 49 55 3c 1a 71 17 3b f7 d0 e8 3d 12 6e e4 bd
       0.013018026 0.0023108185 0.11367982 -0.11153807
0002a0 5e 8d 83 3d 46 ee eb bc 90 28 53 bd 2b f6 ae 3c
       0.06423448 -0.028800141 -0.051552355 0.021357616
0002b0 fc e6 f1 bc a8 20 fa bd 79 f4 5b 3d 77 ff ae 3d
       -0.029529087 -0.1221326 0.053699944 0.0854482
0002c0 d6 94 8d 3e 25 d8 99 bd 10 46 12 3e 5e 5d b2 bd
       0.27652615 -0.075119294 0.14284539 -0.08709215
0002d0 47 23 56 3d 38 43 54 bd d2 76 1a be 73 c5 13 3e
       0.052279737 -0.051821917 -0.15084389 0.1443079
0002e0 ae 57 11 3e c2 ae ca bd 37 43 bd bc c0 1d c2 bd
       0.14193603 -0.09896614 -0.02310334 -0.094783306
0002f0 9e 9f c1 bd d0 9a 3a 3d bf be 9f be f5 5c 8d 3d
       -0.09454273 0.045557797 -0.31200215 0.06902496
000300 3c be dc bd 95 31 3d 3e 2f 36 5f 3d 07 c0 d0 bd
       -0.10778472 0.18475945 0.054495033 -0.10192876
000310 18 9f d8 bd 42 a2 9d bd 8a 9f 55 bd 6e 64 0a 3e
       -0.1057722 -0.07696964 -0.0521541 0.13514873
000320 77 a5 e9 bd c0 cc ef bd c7 d1 8b 3d 32 65 33 3c
       -0.11408513 -0.11708975 0.06827121 0.01094942
000330 b1 98 45 3e 7e cc 49 3d 5b 81 46 bd b4 db 83 bc
       0.19296528 0.049267285 -0.048463207 -0.016095974
000340 f2 a5 d0 3d 51 00 8d 3d 23 59 64 3d b2 f4 99 3d
       0.101879016 0.06884826 0.05574907 0.07517375
000350 8d eb 0c bc 42 5c aa 3d c4 01 e4 bd c8 a7 ed 3d
       -0.008601082 0.08318378 -0.11133149 0.11604267
000360 b9 37 93 bc 5a 8e 03 3e 68 ca 69 3d 1e 89 ee 3d
       -0.017970907 0.12847272 0.057077795 0.11647247
000370 13 87 1c 3e 52 c5 b1 3d 15 61 3a 3b 63 80 59 3d
       0.15285902 0.08680214 0.0028439213 0.053100955
000380 28 7c 8d bd 26 67 e3 3d 66 8e 30 bd e8 d1 23 3e
       -0.069084466 0.111036584 -0.04310455 0.15998042
000390 59 56 5b 3e fa 70 a5 bd 1e ad a2 3e 89 92 e7 3b
       0.21419658 -0.08078189 0.31772703 0.007067029
0003a0 e7 0a 89 bc 48 9f 17 3c 31 30 0c be cd 59 12 3d
       -0.016728831 0.009254284 -0.13690259 0.035730172
0003b0 5a af 4e 3e 51 c0 87 3d 29 4b 85 3d 46 ae 7d bd
       0.20184079 0.06628478 0.06508476 -0.06193378
0003c0 b0 ca 1e bd 47 8a de 3c 78 d4 e0 3d 65 32 bc bc
       -0.038767517 0.027165545 0.10978025 -0.022973249
0003d0 b7 5c 2e 3e ec 90 fe bd 76 4f ba bd 8b e9 d7 3d
       0.17027555 -0.124299854 -0.09097187 0.10542592
0003e0 e3 de 8e 3d f5 28 8a 3d 34 9c fe 3d 6d 4f c4 bc
       0.06976106 0.06746093 0.12432137 -0.023963654
0003f0 3e 2f 2f 3d 40 3b ef 3d 57 19 88 bd 5f f1 d1 3d
       0.042769663 0.11681223 -0.06645458 0.10251116

fc3.bias f4 [40]
000000 88 b1 e4 3d 39 b2 e9 bd b2 fa de 3b e7 4c cf 3c
       0.11166674 -0.114109464 0.0068047876 0.025305225
000010 34 00 31 3e 9e 9e fe bb ab 67 68 3e 90 12 1e bd
       0.17285234 -0.0077703735 0.22695796 -0.03859192
000020 1f 8c 3f 3e af c0 0a be 52 61 5b 3d b2 75 47 3e
       0.18705796 -0.13550065 0.05355961 0.19478491
000030 9a ac e7 bc 73 62 3b 3e 83 5d 61 3d 64 07 46 3e
       -0.028280545 0.18299274 0.05502082 0.19338757
000040 55 79 09 be bd 4a 6d 3e 48 18 0a 3e f5 ef e9 3d
       -0.13425191 0.23173042 0.13485825 0.11422721
000050 d4 2c 57 3e c7 ec d4 3d 13 70 94 3d 2b 23 1d 3e
       0.21013194 0.10396724 0.07247939 0.15345447
000060 ad fa 02 be 32 81 0b bc 1d a8 46 3c cf c6 9b bd
       -0.12790938 -0.008514689 0.012125042 -0.07606279
000070 1e 93 a5 bc 0e 68 fc bd f2 17 ab 3d 64 eb 09 be
       -0.020211753 -0.12324534 0.083541766 -0.134687
000080 8c 7e 97 bd ef 7b 7b 3d 4f 8f 82 bd 7d 78 9b 3d
       -0.07397184 0.06139749 -0.0637499 0.07591341
000090 04 10 db 3d fe c9 3e 3d 46 5f 78 3e c7 97 8f 3d
       0.10696414 0.046579354 0.24255094 0.07011371

fc4.weight f4 [1, 40]
000000 73 44 8f be 6f bb 6f 3d 1e 83 63 be 59 68 15 be
       -0.2798191 0.05852836 -0.22217986 -0.14590587
000010 13 c4 80 3e b2 55 f5 bd ec cb 3c be f9 f5 cb bd
       0.25149593 -0.11979236 -0.18437165 -0.09959025
000020 3a cb 61 3e 6f b5 bb bd 38 b9 15 be e6 4c 8a 3e
       0.22050181 -0.09165465 -0.14621437 0.27011794
000030 86 1e be 3d f0 67 0a be d5 f8 64 3e 34 46 fe bd
       0.09283166 -0.13516212 0.22360547 -0.12415734
000040 03 4e eb 3c 21 eb 89 be a1 22 82 3e 08 6b 38 be
       0.028723722 -0.26937202 0.25417045 -0.18009579
000050 75 cd 22 3e 8a 2a 81 be c8 b9 09 be 07 77 3e 3e
       0.15898688 -0.25227767 -0.13449776 0.18600093
000060 b7 a2 1a 3e 71 8c f4 bd bc 71 ee bd 6e 06 ce 3d
       0.15101133 -0.119408496 -0.11642787 0.1005982
000070 c2 a5 86 3e c1 0a a9 3d c6 bd 13 be 20 e6 03 3d
       0.26298338 0.08254004 -0.14427862 0.032201886
000080 c8 ec 53 3d 79 03 7e be a6 9f 54 3e d9 17 85 3e
       0.051739484 -0.24806012 0.20764026 0.25994757
000090 de 62 2f be ac db 8c be 60 b1 8a be 8e ab 9c 3e
       -0.17127559 -0.27511346 -0.2708845 0.30599636
