data/models/models/output/rho_S.pth (torch, 19383 bytes, 7 tensors)

fc1.weight f4 [40, 20]
0.11711322 0.08513123 0.21039367 -0.25248227 0.18873067 -0.11135607 0.036748383 -0.17998971
0.019221969 0.2572469 -0.10617913 -0.18701084 0.010042836 0.22509085 0.19789742 -0.14808515
-0.043033663 -0.272812 0.09636223 0.19892678 -0.0010319625 0.10270762 0.26191035 0.07772675
-0.17687379 0.16427046 0.08590844 0.17683235 0.16554296 0.21741626 -0.17493816 0.013029606
-0.058842406 -0.082874656 0.09990759 0.0020816368 0.20070826 0.17372799 -0.02991878 -0.20414037
0.1471403 0.24872886 0.13138326 -0.13155368 -0.2530119 -0.041404705 0.08403405 0.3083514
-0.11959725 0.06259616 -0.22161335 -0.14101656 -0.08799759 0.14914253 0.019934325 -0.083885364
-0.031451795 0.29665124 -0.28700873 -0.11456368 0.21145979 0.15701424 -0.008673439 -0.027291955
0.36578056 0.23918389 0.3085266 0.07366923 0.24174637 0.062136736 -0.31870484 0.1830862
-0.078424565 -0.040792063 -0.031810287 0.2529377 -0.36831513 -0.13629107 -0.33984122 -0.2082739
-0.10431147 0.03924849 0.09310174 -0.056860853 0.13339573 0.5655147 -0.3865746 -0.009347826
-0.20102042 -0.25236237 0.09774776 -0.43373686 -0.16783904 0.14502788 0.034600306 -0.62228876
-0.24238327 -0.085907795 -0.19478235 0.37891075 -0.07737032 -0.079928294 0.014437373 0.11688514
-0.023157904 0.0802515 -0.23069115 0.0015354347 0.055058796 -0.17801464 0.12912153 -0.093958914
-0.11877829 -0.12030366 0.17915043 0.17812209 -0.25593317 0.10340165 0.040954277 -0.10733982
0.15743911 -0.33429438 -0.23030418 -0.04219326 -0.18061347 -0.3266093 -0.26409945 0.6657982
-0.097566955 -0.55214125 -0.05420187 -0.059310608 -0.18033032 0.061820693 0.21068326 0.029489404
0.07414071 0.30000597 0.023024915 0.21044682 0.19487427 0.22920813 -0.13836052 0.09541128
-0.13829446 -0.46233168 -0.06736213 -0.03770064 -0.39109248 -0.13125877 -0.0700142 0.14551862
-0.11442346 0.11889253 0.17404594 -0.06184779 0.12080906 -0.02760642 -0.3386374 0.11731934
0.1747333 -0.22778453 -0.04971876 -0.12374905 0.316807 0.2734905 0.3272477 -0.22830674
0.40841204 -0.075289644 0.15902641 0.13007851 0.21529908 0.08245111 0.2812508 -0.03204251
-0.12919262 -0.20882158 -0.094485015 0.11917151 -0.10377354 -0.046178527 -0.073524855 0.004288203
-0.10447731 0.11373481 -0.07189545 0.005208509 0.05929114 -0.20927288 -0.04910241 -0.2069303
0.02000864 -0.16792768 0.11081384 -0.11713173 -0.22279702 0.10215307 0.10897656 0.05160234
-0.13155892 -0.20586802 -0.1249223 0.31651095 -0.282023 0.17114606 0.13069376 -0.24031672
-0.05400159 0.21051149 -0.41890395 -0.22828892 0.4095235 -0.13004425 0.025240434 0.14632136
0.28474766 0.7777804 0.101883076 0.3779013 -0.17609346 -0.11709321 -0.18739948 -0.09778216
-0.24170704 0.020128593 -0.08557587 -0.13439214 -0.0584619 -0.15601128 -0.09545374 -0.13741596
0.053696856 0.10090262 -0.11923971 -0.08555882 0.19858839 0.10265688 -0.16229519 -0.18053977
0.1751768 -0.052549783 0.003818166 0.105305426 -0.10898667 -0.006537245 -0.18692909 0.031418875
0.16806825 -0.1628476 0.12425332 -0.070516236 -0.033642292 0.067205615 -0.11664714 -0.15445578
00000000: 0ed9 ef3d 4859 ae3d 7071 573e 5b45 81be
00000010: 9d42 413e a70e e4bd 7985 163d 394f 38be
00000020: 6477 9d3c deb5 833e 7274 d9bd c57f 3fbe
00000030: b58a 243c 377e 663e 9fa5 4a3e a2a3 17be
00000040: 1144 30bd 04ae 8bbe 9059 c53d 76b3 4b3e
00000050: ea42 87ba 5f58 d23d 1d19 863e 342f 9f3d
00000060: 671e 35be 8436 283e c4f0 af3d 8a13 353e
00000070: 1884 293e 5ea2 5e3e fd22 33be 217a 553c
00000080: bc04 71bd 30ba a9bd 5a9c cc3d 126c 083b
00000090: 7786 4d3e c0e5 313e 3b18 f5bc 2c0a 51be
000000a0: f2ab 163e c7b2 7e3e 5589 063e 02b6 06be
000000b0: c78a 81be fb97 29bd 0b1a ac3d 3ce0 9d3e
000000c0: 67ef f4bd 6a32 803d 9cee 62be a566 10be
000000d0: 1538 b4bd d2b8 183e 4f4d a33c 17cc abbd
000000e0: 99d3 00bd ace2 973e cff2 92be 5da0 eabd
000000f0: ea88 583e 57c8 203e 0a1b 0ebc 6193 dfbc
00000100: 9747 bb3e 9fec 743e 33f7 9d3e e5df 963d
00000110: 5c8c 773e 1783 7e3d 482d a3be f37a 3b3e
00000120: 0f9d a0bd 9415 27bd 814b 02bd 0d81 813e
00000130: cd93 bcbe e38f 0bbe abff adbe c145 55be
00000140: 41a1 d5bd 06c3 203d 20ac be3d ede6 68bd
00000150: e498 083e 92c5 103f 1bed c5be a027 19bc
00000160: 4cd8 4dbe a435 81be fa2f c83d c212 debe
00000170: ffdd 2bbe 3082 143e 0db9 0d3d 514e 1fbf
00000180: 5233 78be 6df0 afbd 0675 47be 9700 c23e
00000190: 5574 9ebd 72b1 a3bd bb8a 6c3c 7a61 ef3d
000001a0: a5b5 bdbc e65a a43d 4d3a 6cbe a440 c93a
000001b0: 5585 613d 7849 36be 6f38 043e 886d c0bd
000001c0: 0842 f3bd c461 f6bd 3673 373e a365 363e
000001d0: ac09 83be 3fc4 d33d acbf 273d fbd4 dbbd
000001e0: b837 213e a228 abbe dcd4 6bbe d7d2 2cbd
000001f0: bdf2 38be 5639 a7be 0b38 87be c071 2a3f
00000200: 2fd1 c7bd 2159 0dbf c802 5ebd aeef 72bd
00000210: 83a8 38be b237 7d3d 5abd 573e c393 f13c
00000220: 16d7 973d 629a 993e bf9e bc3c 5f7f 573e
00000230: 1f8d 473e 89b5 6a3e 61ae 0dbe fd66 c33d
00000240: 109d 0dbe bdb6 ecbe 28f5 89bd fc6b 1abd
00000250: 463d c8be b368 06be 9b63 8fbd d502 153e
00000260: d956 eabd ed7d f33d 1939 323e 1c54 7dbd
00000270: be6a f73d dc26 e2bc e261 adbe 1f45 f03d
00000280: 49ed 323e 5940 69be e6a5 4bbd 2470 fdbd
00000290: 8734 a23e f206 8c3e 038d a73e 3ec9 69be
000002a0: 621b d13e 7531 9abd d2d7 223e 4d33 053e
000002b0: 5d77 5c3e 21dc a83d 1b00 903e 023f 03bd
000002c0: 124b 04be 53d5 55be 5c81 c1bd 3110 f43d
000002d0: 3987 d4bd b225 3dbd 3394 96bd 0e84 8c3b
000002e0: 33f8 d5bd cced e83d ec3d 93bd 24ac aa3b
000002f0: 44db 723d a14b 56be 9c1f 49bd 89e5 53be
00000300: 29e9 a33c 3cf5 2bbe 5ef2 e23d c3e2 efbd
00000310: e724 64be a135 d13d 1a2f df3d fa5c 533d
00000320: 62b7 06be 11cf 52be 43d7 ffbd b90d a23e
00000330: 5265 90be ea40 2f3e 96d4 053e 9615 76be
00000340: c530 5dbd 5390 573e 947a d6be 92c4 69be
00000350: 10ad d13e 522a 05be 07c5 ce3c 44d5 153e
00000360: 72ca 913e 9e1c 473f 13a8 d03d 477c c13e
00000370: d851 34be 91ce efbd a6e5 3fbe 0342 c8bd
00000380: 0d82 77be b8e4 a43c 6742 afbd 189e 09be
00000390: bf75 6fbd 6cc1 1fbe 407d c3bd c5b6 0cbe
000003a0: 3cf1 5b3d 08a6 ce3d f333 f4bd 7639 afbd
000003b0: c15a 4b3e c53d d23d b630 26be 6bdf 38be
000003c0: 8c61 333e 713e 57bd 323a 7a3b 5faa d73d
000003d0: 6734 dfbd 6336 d6bb 576a 3fbe 14b1 003d
000003e0: 151a 2c3e 85c1 26be 8678 fe3d d16a 90bd
000003f0: 80cc 09bd 19a3 893d b2e4 eebd a829 1ebe

fc1.bias f4 [40]
-0.06908393 -0.16079026 0.14170462 0.073163785 -0.33585104 -0.036024068 0.13596274 0.3065878
0.134177 -0.084369026 0.078036964 -0.15606765 -0.23933248 0.374832 0.16090535 -0.195442
-0.018640393 -0.023265295 -0.25978586 -0.093222484 -0.18505451 -0.036568105 0.034646027 0.152772
0.046917584 0.18206872 -0.15160626 0.059322976 -0.25631216 0.05614847 -0.20839134 -0.1233436
0.015486504 -0.15368743 -0.21830188 -0.13231468 0.018992145 -0.16513184 -0.14060909 -0.21407703
00000000: e07b 8dbd 34a6 24be 041b 113e e5d6 953d
00000010: abf4 abbe f98d 13bd d139 0b3e 13f9 9c3e
00000020: b265 093e abc9 acbd d8d1 9f3d 33d0 1fbe
00000030: 9313 75be fbe9 bf3e 5fc4 243e f321 48be
00000040: bdb3 98bc dc96 bebc a702 85be 6eeb bebd
00000050: ee7e 3dbe 70c8 15bd fee8 0d3d 4370 1c3e
00000060: a72c 403d 3970 3a3e ac3e 1bbe a6fc 723d
00000070: 593b 83be f0fb 653d 8a64 55be 929b fcbd
00000080: 1bbb 7d3c 3d60 1dbe 878a 5fbe 807d 07be
00000090: 6a95 9b3c 5218 29be d4fb 0fbe 0237 5bbe

fc2.weight f4 [40, 40]
0.047743846 0.14572966 -0.21843642 0.15382914 0.018701091 -0.042297903 0.0007324957 -0.33333212
0.11096278 -0.030376785 -0.11663396 0.033847 -0.051373266 -0.49714875 0.022203669 -0.21494806
-0.05138689 -0.1753802 -0.03869605 -0.0537534 0.10586971 0.048337307 0.033684 0.058087587
0.07028777 0.0205164 0.049458973 0.07040058 -0.043414205 0.04040482 0.103112906 0.12520528
-0.06266779 -0.041284807 0.26871967 0.06973708 0.14543943 0.082821764 0.109090686 -0.064854994
-0.120110154 -0.19652407 0.033027466 -0.13109843 -0.22980474 0.037186634 0.01834869 0.040684998
-0.06640835 -0.046394367 0.0064511336 -0.08405153 -0.0042925375 0.065511405 -0.04792832 -0.07283267
0.08273503 0.06598625 -0.038159437 0.0054521933 -0.093621545 -0.068826035 0.028365072 0.0065689953
-0.07692119 -0.056207985 -0.0783432 -0.04815677 -0.07775895 -0.10326758 -0.19426852 -0.05307594
-0.0479325 0.0030062855 -0.026769005 0.040089287 -0.10360454 -0.015312118 -0.07813474 0.0638357
-0.0064225458 -0.01614087 -0.024614112 -0.04674419 -0.014738668 -0.054910578 0.03668201 0.06958647
-0.09665826 0.06198059 -0.05488698 -0.04977198 -0.035398245 0.06417459 0.06655694 -0.028453639
-0.022369964 -0.06939754 0.07638818 0.06778641 -0.07442605 0.034191318 -0.07981312 -0.04138856
0.011525053 -0.004418444 0.0041100592 -0.042929128 0.07136694 0.041121062 -0.054058872 -0.00020827039
-0.034014072 -0.029122524 -0.057707157 -0.06493211 -0.053870335 0.0014595629 0.06634456 -0.06778632
-0.05582966 0.051192634 -0.040622782 0.016604979 -0.21798971 -0.034790587 0.13551818 0.016615096
0.1250565 0.037277393 -0.4132989 0.024049185 0.073928066 -0.19643277 0.13098629 -0.16010416
-0.020342605 -0.06441401 0.04665483 -0.020701686 0.114947096 0.05624312 0.05785141 0.092042215
0.017704148 0.07919946 -0.0845875 0.1570488 0.04425195 0.01568502 0.088976294 0.1136511
0.033648033 0.06629784 -0.06909356 0.0734805 0.0116538 -0.04081962 0.13786395 -0.17618784
0.07699497 0.11891994 0.03658205 0.0786233 -0.19483428 -0.071512036 0.20779604 -0.07479243
0.1320262 -0.04920204 -0.27622512 -0.078576595 -0.05585108 -0.004403796 0.1472469 -0.18013994
0.079978004 -0.22000405 0.036486473 -0.039566472 0.026173025 0.03633305 0.01341139 0.14265405
0.09740436 0.06442221 -0.04851933 0.07380321 -0.053729996 0.10037119 0.14650019 -0.0007807468
0.018260762 0.020966597 0.19657642 0.042157266 0.034729965 0.0017540192 0.10612197 0.08830422
-0.027542926 -0.011722159 -0.060702905 0.0029912435 0.44827503 -0.07398361 -0.21346286 0.0300204
-0.0013818791 -0.025726024 0.2853657 0.08854424 0.024610268 0.21309468 -0.008350853 0.036560014
-0.24155995 0.1645707 0.24838547 0.063692 -0.20784053 -0.021591328 0.014932379 -0.03534418
-0.092405446 0.15079094 0.026869848 0.08597337 0.042343047 -0.024245586 0.0962334 0.1374144
-0.06883258 -0.043412015 -0.0142051885 -0.2907386 -0.1242391 -0.3032256 -0.024097681 -0.28837118
0.10722464 0.113284096 0.0518896 -0.113731384 -0.040835395 -0.023185138 0.035687964 -0.100436136
-0.16093472 -0.041923072 0.20960155 0.07040098 -0.051790148 -0.13050944 -0.14105715 0.0962787
00000000: 0d8f 433d 283a 153e ccad 5fbe 6385 1d3e
00000010: 0833 993c 9140 2dbd f404 403a 82aa aabe
00000020: 7440 e33d bcd8 f8bc c9dd eebd 27a3 0a3d
00000030: c66c 52bd 488a febe 78e4 b53c 581b 5cbe
00000040: 0f7b 52bd de96 33be c07f 1ebd 862c 5cbd
00000050: 38d2 d83d 57fd 453d 3cf8 093d 40ed 6d3d
00000060: 09f3 8f3d 0212 a83c 7e95 4a3d 2e2e 903d
00000070: 18d3 31bd 867f 253d dc2c d33d d035 003e
00000080: f857 80bd 421a 29bd a095 893e 50d2 8e3d
00000090: 13ee 143e 759e a93d f06a df3d b2d2 84bd
000000a0: 50fc f5bd 9b3d 49be cf47 073d ab3e 06be
000000b0: ef51 6bbe 0351 183d fe4f 963c 50a5 263d
000000c0: 1a01 88bd 0508 3ebd 0864 d33b 3523 acbd
000000d0: 6aa8 8cbb d82a 863d 7c50 44bd 4b29 95bd
000000e0: fc70 a93d cd23 873d 124d 1cbd 50a8 b23b
000000f0: a7bc bfbd aaf4 8cbd de5d e83c ba40 d73b
00000100: db88 9dbd 583a 66bd 6672 a0bd 0940 45bd
00000110: 1640 9fbd f47d d3bd 54ee 46be 2866 59bd
00000120: de54 44bd 1a05 453b ac4a dbbc aa34 243d
00000130: 9e2e d4bd aedf 7abc 1b05 a0bd 4bbc 823d
00000140: 3874 d2bb dc39 84bc 89a3 c9bc d676 3fbd
00000150: 747a 71bc eae9 60bd e03f 163d 5a83 8e3d
00000160: c4f4 c5bd 5cdf 7d3d 2cd1 60bd b4dd 4bbd
00000170: c0fd 10bd f86d 833d 014f 883d 9b17 e9bc
00000180: 3741 b7bc 4c20 8ebd 6871 9c3d 9ad3 8a3d
00000190: af6c 98bd 320c 0c3d 1075 a3bd 0d87 29bd
000001a0: 93d3 3c3c 98c8 90bb adad 863b 74d6 2fbd
000001b0: d528 923d 8f6e 283d d66c 5dbd 2863 5ab9
000001c0: 5752 0bbd 5c92 eebc 575e 6cbd 20fb 84bd
000001d0: 24a7 5cbd ce4e bf3a a8df 873d 8ed3 8abd
000001e0: a4ad 64bd 5eaf 513d 1364 26bd 2a07 883c
000001f0: b238 5fbe 9380 0ebd 47c5 0a3e 621c 883c
00000200: d00e 003e 2eb0 183d ea9b d3be cc02 c53c
00000210: 9967 973d ac25 49be 4521 063e 58f2 23be
00000220: 89a5 a6bc 7eeb 83bd 2319 3f3d 9596 a9bc
00000230: 6269 eb3d 305f 663d 9af5 6c3d a180 bc3d
00000240: 4a08 913c 5433 a23d 363c adbd 67d1 203e
00000250: 8841 353d df7d 803c 3439 b63d e8c1 e83d
00000260: 85d2 093d 29c7 873d ed80 8dbd f27c 963d
00000270: 94ef 3e3c 7932 27bd 352c 0d3e 966a 34be
00000280: 8aaf 9d3d 4c8c f33d 0fd7 153d 4105 a13d
00000290: a382 47be e774 92bd 7cc8 543e c62c 99bd
000002a0: e031 073e 1488 49bd 616d 8dbe c4ec a0bd
000002b0: 1ac4 64bd b84d 90bb e4c7 163e 9b76 38be
000002c0: 82cb a33d be48 61be d772 153d 7410 22bd
000002d0: d068 d63c f7d1 143d 72bb 5b3c e713 123e
000002e0: f07b c73d cbef 833d 34bc 46bd 2326 973d
000002f0: fc13 5cbd 698f cd3d 2504 163e 08ab 4cba
00000300: 9897 953c 24c2 ab3c 544b 493e 19ad 2c3d
00000310: 0241 0e3d 1ee7 e53a 7a56 d93d d8d8 b43d
00000320: b4a1 e1bc 4c0e 40bc 9ca3 78bd bd08 443b
00000330: 4e84 e53e b884 97bd 0296 5abe 58ed f53c
00000340: 2b20 b5ba 62bf d2bc 741b 923e af56 b53d
00000350: 799b c93c 7e35 5a3e 04d2 08bc f4bf 153d
00000360: 7e5b 77be 3985 283e c358 7e3e f470 823d
00000370: 26d4 54be 4ce0 b0bc f0a6 743c 0fc5 10bd
00000380: 113f bdbd f168 1a3e 281e dc3c ce12 b03d
00000390: e76f 2d3d ae9e c6bc 0416 c53d 5cb6 0c3e
000003a0: 18f8 8cbd ccd0 31bd e1bc 68bc b1db 94be
000003b0: 1271 febd 6340 9bbe 8068 c5bc 63a5 93be
000003c0: 9898 db3d 7e01 e83d 308a 543d 00ec e8bd
000003d0: 0443 27bd c2ee bdbc 8b2d 123d 76b1 cdbd
000003e0: 12cc 24be 87b7 2bbd caa1 563e 642e 903d
000003f0: e821 54bd 44a4 05be 4971 10be c42d c53d

fc2.bias f4 [40]
0.09334101 0.048623513 -0.11793017 0.118064985 0.02381912 0.20232679 0.049670607 -0.15785262
0.13892435 0.07158742 -0.035940778 -0.10247859 0.16274862 -0.12348516 0.16394356 0.01904517
-0.07448338 0.14341238 0.05031666 0.21081483 0.16968648 -0.030697849 -0.023511054 -0.011354903
0.07169755 0.19176656 -0.04806353 0.22978301 0.017510122 0.12630005 -0.07297122 0.08155965
0.0445157 0.019410389 0.014477504 0.025648372 0.20264015 0.018049745 -0.040918108 -0.029436644
00000000: 9229 bf3d 7329 473d 5f85 f1bd 0ecc f13d
00000010: 5120 c33c c12e 4f3e 6873 4b3d 1ea4 21be
00000020: 2f42 0e3e 6d9c 923d a336 13bd 4ce0 d1bd
00000030: 93a7 263e cae5 fcbd d2e0 273e 9e04 9c3c
00000040: be8a 98bd b2da 123e d818 4e3d d8df 573e
00000050: 4bc2 2d3e 0e7a fbbc 419a c0bc ea09 3abc
00000060: 2ad6 923d 745e 443e 44de 44bd 3d4c 6b3e
00000070: 6371 8f3c cd54 013e ef71 95bd bf08 a73d
00000080: 1856 363d 8902 9f3c 0e33 6d3c 891c d23c
00000090: e680 4f3e 0fdd 933c bf99 27bd 1e25 f1bc

fc3.weight f4 [40, 40]
-0.02005281 -0.22173984 -0.006463077 -0.04557065 -0.13330853 0.07076469 -0.05788617 -0.037279
-0.22824126 -0.10330367 -0.18854141 -0.0024352751 -0.06768166 0.0726822 -0.051165197 0.040509496
0.017951526 -0.055999428 -0.110801354 -0.21269947 -0.1899945 0.036314894 0.089401595 -0.019736111
0.13782766 -0.27297476 -0.05642525 -0.24694815 0.048713896 -0.11751303 -0.07469405 -0.1931478
-0.038896013 -0.18507239 -0.04098342 -0.07397483 0.014776718 0.041636035 -0.009474946 0.0038109124
0.009945642 0.016278131 -0.026137764 -0.018219693 -0.07787511 -0.00442191 0.07825738 -0.09146874
0.07842403 -0.0040851627 -0.17247039 -0.03109501 -0.09546757 -0.12835586 0.069523 0.027727185
-0.0673449 -0.09675133 0.02516459 0.036202464 -0.059899926 0.033713758 -0.10135909 0.03048815
0.12962358 0.04439426 -0.066981144 -0.07134366 -0.053601887 -0.145631 -0.0020779055 0.04303565
-0.04161606 -0.10380478 -0.07523012 -0.11674017 0.06687799 -0.029807562 -0.06783151 -0.026035085
-0.015532513 -0.002566788 0.041178677 -0.09684083 0.018543912 -0.019531466 0.03789956 0.041347843
-0.087254316 0.05826226 -0.07190024 -0.06257804 0.022416275 -0.08080959 0.041725952 -0.02234369
0.005931358 0.08049698 0.00037816598 0.011229071 -0.024906393 0.09014866 -0.034173205 -0.06933463
0.06897052 -0.026704524 0.028147891 -0.030849354 0.022854663 0.023692718 -0.028640516 0.09316932
-0.02456551 -0.058789752 0.022636227 0.055643667 -0.11285137 0.060942598 -0.048066515 0.06941041
0.028798873 -0.02861788 -0.09399107 0.014941007 0.04595477 -0.01984381 -0.06068492 -0.09309886
0.0068391953 -0.0672964 -0.055326656 -0.06557801 0.041927554 -0.036403015 0.012232348 -0.056421973
0.09176643 -0.058359087 0.06117512 -0.083000794 0.075070396 -0.09299856 0.087807104 -0.021842215
0.0112280445 -0.014360836 -0.016242715 0.00720778 -0.01902781 0.0586432 -0.07580724 -0.009676247
0.07535446 0.035804693 0.033831883 0.09930751 -0.08194579 -0.027623083 -0.03160476 -0.09990005
0.18194017 0.06029814 -0.03445989 0.06455646 0.06602303 -0.12996171 0.1891857 0.034378473
-0.008215838 0.07761159 0.23086888 0.15066046 0.2073299 0.15296407 0.15886825 0.0948551
0.1089539 0.052969888 0.08413209 0.09000058 0.10904885 0.19040672 0.018756868 0.07939808
-0.116638556 0.13804433 0.06474997 0.013322903 0.13999529 0.038176585 -0.06317506 0.0143101625
0.12826684 0.026412847 0.056952324 -0.06277537 0.16837648 0.1671686 0.17265052 0.027404616
-0.0049310895 0.08766781 0.091591515 -0.07629127 0.0072108917 -0.06372009 0.078629166 -0.10696332
0.06455678 -0.10260388 0.007526716 0.028979205 0.067847244 -0.03598056 -0.09533082 0.08169856
-0.04707943 -0.022700973 -0.040589184 -0.06058286 -0.023671864 0.01853663 -0.01639738 0.048243254
-0.081467494 -0.059280746 -0.06662915 0.024288528 0.0669507 0.015409887 0.036366522 -0.027420152
0.083202675 -0.11493994 0.052683607 -0.08148106 -0.016037943 0.03669616 0.061133653 0.007846215
0.097412266 -0.05852264 -0.04794128 0.053460155 0.11845816 -0.10579546 0.1947562 0.12766324
0.11027827 0.046884157 0.18586878 0.12008764 0.042647388 0.2012993 0.097648345 -0.0100762285
00000000: ca45 a4bc c50f 63be 38c8 d3bb 4aa8 3abd
00000010: 0882 08be 14ed 903d 0c1a 6dbd ddb1 18bd
00000020: 14b8 69be e090 d3bd 0011 41be 2399 1fbb
00000030: af9c 8abd 68da 943d 9992 51bd 49ed 253d
00000040: 140f 933c a85f 65bd d2eb e2bd e4cd 59be
00000050: eb8d 42be edbe 143d 2f18 b73d a0ad a1bc
00000060: b222 0d3e 59c3 8bbe 2a1e 67bd fadf 7cbe
00000070: 3988 473d acaa f0bd 32f9 98bd 89c8 45be
00000080: 6d51 1fbd 9e83 3dbe 3bde 27bd 1e80 97bd
00000090: 0c1a 723c 8c8a 2a3d ce3c 1bbc 80c0 793b
000000a0: 0cf3 223c b759 853c dd1e d6bc 7741 95bc
000000b0: fc7c 9fbd abe5 90bb 6845 a03d f653 bbbd
000000c0: c79c a03d d4dc 85bb 149c 30be f6ba febc
000000d0: 8084 c3bd b86f 03be 1362 8e3d 1f24 e33c
000000e0: 1fec 89bd 9025 c6bd f825 ce3c 0949 143d
000000f0: a059 75bd 7017 0a3d 5b95 cfbd 49c2 f93c
00000100: 0bbc 043e c1d6 353d 692d 89bd a01c 92bd
00000110: a78d 5bbd 4b20 15be 782d 08bb 2646 303d
00000120: 9a75 2abd 9a97 d4bd 4012 9abd 7815 efbd
00000130: 54f7 883d fd2e f4bc 3feb 8abd 8847 d5bc
00000140: 157c 7ebc 8f37 28bb f9aa 283d 7c54 c6bd
00000150: 67e9 973c 7400 a0bc 923c 1b3d 5b5c 293d
00000160: 64b2 b2bd 68a4 6e3d 6f40 93bd ea28 80bd
00000170: 56a2 b73c 807f a5bd d5e8 2a3d 1d0a b7bc
00000180: d65b c23b 9adb a43d 9444 c639 23fa 373c
00000190: 7e08 ccbc dc9f b83d 34f9 0bbd 51ff 8dbd
000001a0: 6a40 8d3d 72c3 dabc 6896 e63c c9b7 fcbc
000001b0: b439 bb3c 3b17 c23c 849f eabc 8ecf be3d
000001c0: 9c3d c9bc 86cd 70bd 9c6f b93c 9dea 633d
000001d0: 9e1e e7bd f29e 793d 65e1 44bd 0c27 8e3d
000001e0: 9deb eb3c 0b70 eabc 647e c0bd 20cb 743c
000001f0: 123b 3c3d 7c8f a2bc c090 78bd 9daa bebd
00000200: 541b e03b b2d2 89bd 349e 62bd c44d 86bd
00000210: 3abc 2b3d 541b 15bd 306a 483c ba1a 67bd
00000220: 0af0 bb3d f009 6fbd c392 7a3d 52fc a9bd
00000230: 82be 993d 0776 bebd 36d4 b33d 72ee b2bc
00000240: d5f5 373c b649 6bbc 710f 85bc 3e2f ec3b
00000250: 36e0 9bbc da33 703d d440 9bbd 1f89 1ebc
00000260: 7053 9a3d f1a7 123d 4d93 0a3d bc61 cb3d
00000270: 32d3 a7bd ce49 e2bc fe73 01bd 6698 ccbd
00000280: 864e 3a3e 2ffb 763d d025 0dbd 2d36 843d
00000290: 1537 873d af14 05be e5b9 413e 71d0 0c3d
000002a0: b99b 06bc d3f2 9e3d e468 6c3e bc46 1a3e
000002b0: 4a4e 543e 9da2 1c3e 5cae 223e 6443 c23d
000002c0: 3923 df3d f4f6 583d 724d ac3d 3952 b83d
000002d0: 0155 df3d fbf9 423e 01a8 993c 769b a23d
000002e0: 32e0 eebd 7e5b 0d3e a29b 843d 4e48 5a3c
000002f0: ed5a 0f3e 0d5f 1c3d ed61 81bd 2c75 6a3c
00000300: 6258 033e c15f d83c d746 693d 6090 80bd
00000310: e26a 2c3e 3f2e 2b3e 4ccb 303e a57f e03c
00000320: fa94 a1bb 2e8b b33d 5594 bb3d 993e 9cbd
00000330: 5849 ec3b ae7f 82bd 5408 a13d 960f dbbd
00000340: 5836 843d fc21 d2bd aca2 f63b cc65 ed3c
00000350: 7ff3 8a3d 5a60 13bd ce3c c3bd 9351 a73d
00000360: 5cd6 40bd 64f7 b9bc d840 26bd bc25 78bd
00000370: 7feb c1bc 21da 973c cc53 86bc b89a 453d
00000380: 6ed8 a6bd 5ed0 72bd dd74 88bd bcf8 c63c
00000390: 731d 893d c079 7c3c 10f5 143d 3aa0 e0bc
000003a0: 2a66 aa3d a265 ebbd c4ca 573d 8bdf a6bd
000003b0: 0162 83bc b64e 163d 4867 7a3d 698d 003c
000003c0: 1580 c73d 70b5 6fbd 135e 44bd 09f9 5a3d
000003d0: 319a f23d 4aab d8bd 2b6e 473e 27ba 023e
000003e0: 93d9 e13d 9a09 403d 6354 3e3e 82f0 f53d
000003f0: 07af 2e3d 6721 4e3e dbfb c73d c416 25bc

fc3.bias f4 [40]
0.089535065 0.106801145 -0.17326449 -0.04913745 0.12728848 -0.1633633 0.11654359 0.2082957
0.08963717 0.23401235 -0.08613825 -0.12559398 -0.0936124 0.21713388 0.08100048 -0.03554179
-0.008091544 0.11037216 -0.13008207 0.07652028 0.040997542 -0.17299555 -0.029005958 -0.12736556
-0.18520199 -0.08529741 -0.13178998 0.011485766 0.16993669 -0.14642313 -0.051399775 0.13729432
0.017798688 0.10383791 0.022796618 -0.16355495 0.0910057 0.049087223 -0.012296796 -0.16944732
00000000: 295e b73d 8fba da3d 3f6c 31be 5a44 49bd
00000010: e957 023e b548 27be 68ae ee3d 784b 553e
00000020: b193 b73d efa0 6f3e 4069 b0bd b59b 00be
00000030: dcb7 bfbd 5858 5e3e 94e3 a53d 4594 11bd
00000040: 6592 04bc cd0a e23d 3c34 05be aab6 9c3d
00000050: 0aed 273d bf25 31be e79d edbc 1e6c 02be
00000060: 97a5 3dbe 69b0 aebd f4f3 06be cb2e 3c3c
00000070: e203 2e3e f2ef 15be 9288 52bd e296 0c3e
00000080: 8ece 913c f8a8 d43d f9bf ba3c f37a 27be
00000090: 3261 ba3d af0f 493d 8078 49bc 9983 2dbe

fc4.weight f4 [1, 40]
0.24520695 0.10892963 0.026169157 -0.13463143 -0.22469337 0.09089519 -0.22656299 -0.17348908
-0.2358928 -0.2297824 -0.017907666 0.0594375 -0.12010686 -0.24864209 0.20262772 0.073769234
-0.18199357 0.26011527 0.027829802 -0.24098624 0.035537217 -0.04564523 -0.23179588 -0.12027304
-0.06434371 0.02721168 0.1522461 0.5607091 -0.2483841 0.0097876275 0.055360466 -0.2021971
-0.23846394 -0.25079077 -0.2878001 0.30748576 0.4192004 0.5456225 0.05690847 -0.12879
00000000: 8817 7b3e 7f16 df3d b360 d63c d2dc 09be
00000010: 0516 66be 4227 ba3d 2100 68be 1fa7 31be
00000020: e28d 71be 144c 6bbe 19b3 92bc bc74 733d
00000030: 96fa f5bd 089c 7ebe a47d 4f3e 5314 973d
00000040: 865c 3abe d42d 853e 53fb e33c 19c5 76be
00000050: 798f 113d 7ef6 3abd e65b 6dbe b651 f6bd
00000060: a3c6 83bd 07eb de3c 67e6 1b3e a28a 0f3f
00000070: 6758 7ebe 495c 203c a8c1 623d c20c 4fbe
00000080: e42f 74be a667 80be 895a 93be c66e 9d3e
00000090: 6fa1 d63e ebad 0b3f db18 693d 87e1 03be
